…
ard ( self , x ): # Max pooling over a (2, 2) window x = F . max_pool2d ( F . relu ( self . conv1 ( x )), ( 2 , 2 )) # If the size is a square you can only specify a single number x = F . max_pool2d ( F . relu ( self . conv2 ( x )), 2 ) x = x . view ( - 1 , self . num_flat_features ( x )) x = F . relu ( self . fc1 ( x )) x = F . relu ( self . fc2 ( x )) x = self . fc3 ( x ) return x def num_flat_features ( self , x ): size = x . size ()[ 1 :] # all dimensions except the batch dimension num_features = 1 for s in size : num_features *= s return num_features net = Net () print ( net ) Net( (conv1): Conv2d(1, 6, kernel_size=(5, 5), stride=(1, 1)) (conv2): Conv2d(6, 16, kernel_size=(5, 5), stride=(1, 1)) (fc1): Linear(in_features=400, out_features=120, bias=True) (fc2): Linear(in_features=120, out_features=84, bias=True) (fc3): Linear(in_features=84, out_features=10, bias=True) ) \u5728\u6a21\u578b\u4e2d\u5fc5\u987b\u8981\u5b9a\u4e49 forward \u51fd\u6570\uff0c backward \u51fd\u6570\uff08\u7528\u6765\u8ba1\u7b97\u68af\u5ea6\uff09\u4f1a\u88ab autograd \u81ea\u52a8\u521b\u5efa\u3002 \u53ef\u4ee5\u5728 forward \u51fd\u6570\u4e2d\u4f7f\u7528\u4efb\u4f55\u9488\u5bf9 Tensor \u7684\u64cd\u4f5c\u3002 net.parameters() \u8fd4\u56de\u53ef\
…
self , x ): # Max pooling over a (2, 2) window x = F . max_pool2d ( F . relu ( self . conv1 ( x )), ( 2 , 2 )) # If the size is a square you can only specify a single number x = F . max_pool2d ( F . relu ( self . conv2 ( x )), 2 ) x = x . view ( - 1 , self . num_flat_features ( x )) x = F . relu ( self . fc1 ( x )) x = F . relu ( self . fc2 ( x )) x = self . fc3 ( x ) return x def num_flat_features ( self , x ): size = x . size ()[ 1 :] # all dimensions except the batch dimension num_features = 1 for s in size : num_features *= s return num_features net = LeNet5 () print ( net ) LeNet5( (conv1): Conv2d(1, 6, kernel_size=(5, 5), stride=(1, 1)) (conv2): Conv2d(6, 16, kernel_size=(5, 5), stride=(1, 1)) (fc1): Linear(in_features=400, out_features=120, bias=True) (fc2): Linear(in_features=120, out_features=84, bias=True) (fc3): Linear(in_features=84, out_features=10, bias=True) ) AlexNet \u00b6 2012\uff0cAlex Krizhevsky \u53ef\u4ee5\u7b97\u4f5cLeNet\u7684\u4e00\u4e2a\u66f4\u6df1\u548c\u66f4\u5e7f\u7684\u7248\u672c\uff0c\u53ef\u4ee5\u7528\u6765\u5b66\u4e60\u66f4\u590d\u6742\u7684\u5bf9\u8c61 \u8bba\u6587 - \u7528rectified linear units\uff08ReLU\uff09\u5f97\u5230\u975e\u7ebf\u6027\uff1b - \u4f7f\u7528 dropout \u6280\u5de7\u5728\u
…
7\u5c31\u4e22\u5230\u4e86\u4e00\u534a\u8282\u70b9\u7684\u8f93\u51fa\uff0cBP\u7684\u65f6\u5019\u4e5f\u4e0d\u66f4\u65b0\u8fd9\u4e9b\u8282\u70b9\uff0c\u9632\u6b62\u8fc7\u62df\u5408\u3002 fc - relu - dropout fc - softmax \u5728Pytorch\u7684vision\u5305\u4e2d\u662f\u5305\u542bAlexnet\u7684\u5b98\u65b9\u5b9e\u73b0\u7684\uff0c\u6211\u4eec\u76f4\u63a5\u4f7f\u7528\u5b98\u65b9\u7248\u672c\u770b\u4e0b\u7f51\u7edc import torchvision model = torchvision . models . alexnet ( pretrained = False ) #\u6211\u4eec\u4e0d\u4e0b\u8f7d\u9884\u8bad\u7ec3\u6743\u91cd print ( model ) AlexNet( (features): Sequential( (0): Conv2d(3, 64, kernel_size=(11, 11), stride=(4, 4), padding=(2, 2)) (1): ReLU(inplace) (2): MaxPool2d(kernel_size=3, stride=2, padding=0, dilation=1, ceil_mode=False) (3): Conv2d(64, 192, kernel_size=(5, 5), stride=(1, 1), padding=(2, 2)) (4): ReLU(inplace) (5): MaxPool2d(kernel_size=3, stride=2, padding=0, dilation=1, ceil_mode=False) (6): Conv2d(192, 384, kernel_size=(3, 3), stride=(1, 1), padding=(1, 1)) (7): ReLU(inplace) (8): Conv2d(384, 256, kernel_size=(3, 3), stride=(1, 1), padding=(1, 1)) (9): ReLU(inplace) (10): Conv2d(256, 256, kernel_size=(3, 3), stride=(1, 1), padding=(1, 1)) (11): ReLU(inplace) (12): MaxPool2d(kernel_size=3, stride=2, padding=0, dilation=1, ceil_mode=False) ) (classifier): Sequential( (0): Dropout(p=0.5) (1): Linear(in_features=9216, out_features=4096, bias=True) (2): ReLU(inplace) (3): Dropout(p=0.5) (4): Linear(in_features=4096, out_features=4096, bias=True) (5): ReLU(inplace) (6): Linear(in_features=4096, out_features=1000, bias=True) ) ) VGG \u00b6 2015\uff0c\u725b\u6d25\u7684 VGG\u3002 \u8bba\u6587 \u6bcf\u4e2a\u5377\u79ef\u5c42\u4e2d\u4f7f\u7528\u66f4\u5c0f\u7684 3\u00d73 filters\uff0c\u5e76\u5c06\u5b83\u4eec\u7ec4\u5408\u6210\u5377\u79ef\u5e8f\u5217 \u591a\u4e2a3\u00d73\u5377\u79ef\u5e8f\u5217\u53ef\u4ee5\u6a21\u62df\u66f4\u5927\u7684\u63a5\u6536\u573a\u7684\u6548\u679c \u6bcf
…
500d\uff0c\u8fd9\u662f\u4e00\u4e2a\u5341\u5206\u89c4\u6574\u7684\u64cd\u4f5c: \u5206\u8fa8\u7387\u7531\u8f93\u5165\u7684224->112->56->28->14->7, \u7279\u5f81\u4ece\u539f\u59cb\u7684RGB3\u4e2a\u901a\u9053-> 64 ->128 -> 256 -> 512 \u8fd9\u4e3a\u540e\u9762\u7684\u7f51\u7edc\u63d0\u4f9b\u4e86\u4e00\u4e2a\u6807\u51c6,\u6211\u4eec\u4f9d\u65e7\u4f7f\u7528Pytorch\u5b98\u65b9\u5b9e\u73b0\u7248\u672c\u6765\u67e5\u770b import torchvision model = torchvision . models . vgg16 ( pretrained = False ) #\u6211\u4eec\u4e0d\u4e0b\u8f7d\u9884\u8bad\u7ec3\u6743\u91cd print ( model ) VGG( (features): Sequential( (0): Conv2d(3, 64, kernel_size=(3, 3), stride=(1, 1), padding=(1, 1)) (1): ReLU(inplace) (2): Conv2d(64, 64, kernel_size=(3, 3), stride=(1, 1), padding=(1, 1)) (3): ReLU(inplace) (4): MaxPool2d(kernel_size=2, stride=2, padding=0, dilation=1, ceil_mode=False) (5): Conv2d(64, 128, kernel_size=(3, 3), stride=(1, 1), padding=(1, 1)) (6): ReLU(inplace) (7): Conv2d(128, 128, kernel_size=(3, 3), stride=(1, 1), padding=(1, 1)) (8): ReLU(inplace) (9): MaxPool2d(kernel_size=2, stride=2, padding=0, dilation=1, ceil_mode=False) (10): Conv2d(128, 256, kernel_size=(3, 3), stride=(1, 1), padding=(1, 1)) (11): ReLU(inplace) (12): Conv2d(256, 256, kernel_size=(3, 3), stride=(1, 1), padding=(1, 1)) (13): ReLU(inplace) (14): Conv2d(256, 256, kernel_size=(3, 3), stride=(1, 1), padding=(1, 1)) (15): ReLU(inplace) (16): MaxPool2d(kernel_size=2, stride=2, padding=0, dilation=1, ceil_mode=False) (17): Conv2d(256, 512, kernel_size=(3, 3), stride=(1, 1), padding=(1, 1)) (18): ReLU(inplace) (19): Conv2d(512, 512, kernel_size=(3, 3), stride=(1, 1), padding=(1, 1)) (20): ReLU(inplace) (21): Conv2d(512, 512, kernel_size=(3, 3), stride=(1, 1), padding=(1, 1)) (22): ReLU(inplace) (23): MaxPool2d(kernel_size=2, stride=2, padding=0, dilation=1, ceil_mode=False) (24): Conv2d(512, 512, kernel_size=(3, 3), stride=(1, 1), padding=(1, 1)) (25): ReLU(inplace) (26): Conv2d(512, 512, kernel_size=(3, 3), stride=(1, 1), padding=(1, 1)) (27): ReLU(inplace) (28): Conv2d(512, 512, kernel_size=(3, 3), stride=(1, 1), padding=(1, 1)) (29): ReLU(inplace) (30): MaxPool2d(kernel_size=2, stride=2, padding=0, dilation=1, ceil_mode=False) ) (classifier): Sequential( (0): Linear(in_features=25088, out_features=4096, bias=True) (1): ReLU(inplace) (2): Dropout(p=0.5) (3): Linear(in_features=4096, out_features=4096, bias=True) (4): ReLU(inplace) (5): Dropout(p=0.5) (6): Linear(in_features=4096, out_features=1000, bias=True) ) ) GoogLeNet (Inception) \u00b6 2014\uff0cGoogle Christian Szegedy \u8bba\u6587 - \u4f7f\u75281\u00d71\u5377\u79ef\u5757\uff08NiN\uff09\u6765\u51cf\u5c11\u7279\u5f81\u6570\u91cf\uff0c\u8fd9\u901a\u5e38\u88ab\u79f0\u4e3a\u201c\u74f6\u9888\u201d\uff0c\u53ef\u4ee5\u51cf\u5c11\u6df1\u5c42\u795e\u7ecf\u7f51\u7edc\u7684\u8ba1\u7b97\u8d1f\u62c5\u3002 - \u6
…
u5224\u65ad\u54ea\u4e2a\u7279\u5f81\u63d0\u53d6\u65b9\u5f0f\u597d\uff0c\u7f51\u7edc\u4f1a\u81ea\u5df1\u89e3\u51b3\uff08\u662f\u4e0d\u662f\u6709\u70b9\u50cfAUTO ML\uff09\uff0c\u5728Pytorch\u4e2d\u5b9e\u73b0\u4e86InceptionA-E\uff0c\u8fd8\u6709InceptionAUX \u6a21\u5757\u3002 # inception_v3\u9700\u8981scipy\uff0c\u6240\u4ee5\u6ca1\u6709\u5b89\u88c5\u7684\u8bddpip install scipy \u4e00\u4e0b import torchvision model = torchvision . models . inception_v3 ( pretrained = False ) #\u6211\u4eec\u4e0d\u4e0b\u8f7d\u9884\u8bad\u7ec3\u6743\u91cd print ( model ) Inception3( (Conv2d_1a_3x3): BasicConv2d( (conv): Conv2d(3, 32, kernel_size=(3, 3), stride=(2, 2), bias=False) (bn): BatchNorm2d(32, eps=0.001, momentum=0.1, affine=True, track_running_stats=True) ) (Conv2d_2a_3x3): BasicConv2d( (conv): Conv2d(32, 32, kernel_size=(3, 3), stride=(1, 1), bias=False) (bn): BatchNorm2d(32, eps=0.001, momentum=0.1, affine=True, track_running_stats=True) ) (Conv2d_2b_3x3): BasicConv2d( (conv): Conv2d(32, 64, kernel_size=(3, 3), stride=(1, 1), padding=(1, 1), bias=False) (bn): BatchNorm2d(64, eps=0.001, momentum=0.1, affine=True, track_running_stats=True) ) (Conv2d_3b_1x1): BasicConv2d( (conv): Conv2d(64, 80, kernel_size=(1, 1), stride=(1, 1), bias=False) (bn): BatchNorm2d(80, eps=0.001, momentum=0.1, affine=True, track_running_stats=True) ) (Conv2d_4a_3x3): BasicConv2d( (conv): Conv2d(80, 192, kernel_size=(3, 3), stride=(1, 1), bias=False) (bn): BatchNorm2d(192, eps=0.001, momentum=0.1, affine=True, track_running_stats=True) ) (Mixed_5b): InceptionA( (branch1x1): BasicConv2d( (conv): Conv2d(192, 64, kernel_size=(1, 1), stride=(1, 1), bias=False) (bn): BatchNorm2d(64, eps=0.001, momentum=0.1, affine=True, track_running_stats=True) ) (branch5x5_1): BasicConv2d( (conv): Conv2d(192, 48, kernel_size=(1, 1), stride=(1, 1), bias=False) (bn): BatchNorm2d(48, eps=0.001, momentum=0.1, affine=True, track_running_stats=True) ) (branch5x5_2): BasicConv2d( (conv): Conv2d(48, 64, kernel_size=(5, 5), stride=(1, 1), padding=(2, 2), bias=False) (bn): BatchNorm2d(64, eps=0.001, momentum=0.1, affine=True, track_running_stats=True) ) (branch3x3dbl_1): BasicConv2d( (conv): Conv2d(192, 64, kernel_size=(1, 1), stride=(1, 1), bias=False) (bn): BatchNorm2d(64, eps=0.001, momentum=0.1, affine=True, track_running_stats=True) ) (branch3x3dbl_2): BasicConv2d( (conv): Conv2d(64, 96, kernel_size=(3, 3), stride=(1, 1), padding=(1, 1), bias=False) (bn): BatchNorm2d(96, eps=0.001, momentum=0.1, affine=True, track_running_stats=True) ) (branch3x3dbl_3): BasicConv2d( (conv): Conv2d(96, 96, kernel_size=(3, 3), stride=(1, 1), padding=(1, 1), bias=False) (bn): BatchNorm2d(96, eps=0.001, momentum=0.1, affine=True, track_running_stats=True) ) (branch_pool): BasicConv2d( (conv): Conv2d(192, 32, kernel_size=(1, 1), stride=(1, 1), bias=False) (bn): BatchNorm2d(32, eps=0.001, momentum=0.1, affine=True, track_running_stats=True) ) ) (Mixed_5c): InceptionA( (branch1x1): BasicConv2d( (conv): Conv2d(256, 64, kernel_size=(1, 1), stride=(1, 1), bias=False) (bn): BatchNorm2d(64, eps=0.001, momentum=0.1, affine=True, track_running_stats=True) ) (branch5x5_1): BasicConv2d( (conv): Conv2d(256, 48, kernel_size=(1, 1), stride=(1, 1), bias=False) (bn): BatchNorm2d(48, eps=0.001, momentum=0.1, affine=True, track_running_stats=True) ) (branch5x5_2): BasicConv2d( (conv): Conv2d(48, 64, kernel_size=(5, 5), stride=(1, 1), padding=(2, 2), bias=False) (bn): BatchNorm2d(64, eps=0.001, momentum=0.1, affine=True, track_running_stats=True) ) (branch3x3dbl_1): BasicConv2d( (conv): Conv2d(256, 64, kernel_size=(1, 1), stride=(1, 1), bias=False) (bn): BatchNorm2d(64, eps=0.001, momentum=0.1, affine=True, track_running_stats=True) ) (branch3x3dbl_2): BasicConv2d( (conv): Conv2d(64, 96, kernel_size=(3, 3), stride=(1, 1), padding=(1, 1), bias=False) (bn): BatchNorm2d(96, eps=0.001, momentum=0.1, affine=True, track_running_stats=True) ) (branch3x3dbl_3): BasicConv2d( (conv): Conv2d(96, 96, kernel_size=(3, 3), stride=(1, 1), padding=(1, 1), bias=False) (bn): BatchNorm2d(96, eps=0.001, momentum=0.1, affine=True, track_running_stats=True) ) (branch_pool): BasicConv2d( (conv): Conv2d(256, 64, kernel_size=(1, 1), stride=(1, 1), bias=False) (bn): BatchNorm2d(64, eps=0.001, momentum=0.1, affine=True, track_running_stats=True) ) ) (Mixed_5d): InceptionA( (branch1x1): BasicConv2d( (conv): Conv2d(288, 64, kernel_size=(1, 1), stride=(1, 1), bias=False) (bn): BatchNorm2d(64, eps=0.001, momentum=0.1, affine=True, track_running_stats=True) ) (branch5x5_1): BasicConv2d( (conv): Conv2d(288, 48, kernel_size=(1, 1), stride=(1, 1), bias=False) (bn): BatchNorm2d(48, eps=0.001, momentum=0.1, affine=True, track_running_stats=True) ) (branch5x5_2): BasicConv2d( (conv): Conv2d(48, 64, kernel_size=(5, 5), stride=(1, 1), padding=(2, 2), bias=False) (bn): BatchNorm2d(64, eps=0.001, momentum=0.1, affine=True, track_running_stats=True) ) (branch3x3dbl_1): BasicConv2d( (conv): Conv2d(288, 64, kernel_size=(1, 1), stride=(1, 1), bias=False) (bn): BatchNorm2d(64, eps=0.001, momentum=0.1, affine=True, track_running_stats=True) ) (branch3x3dbl_2): BasicConv2d( (conv): Conv2d(64, 96, kernel_size=(3, 3), stride=(1, 1), padding=(1, 1), bias=False) (bn): BatchNorm2d(96, eps=0.001, momentum=0.1, affine=True, track_running_stats=True) ) (branch3x3dbl_3): BasicConv2d( (conv): Conv2d(96, 96, kernel_size=(3, 3), stride=(1, 1), padding=(1, 1), bias=False) (bn): BatchNorm2d(96, eps=0.001, momentum=0.1, affine=True, track_running_stats=True) ) (branch_pool): BasicConv2d( (conv): Conv2d(288, 64, kernel_size=(1, 1), stride=(1, 1), bias=False) (bn): BatchNorm2d(64, eps=0.001, momentum=0.1, affine=True, track_running_stats=True) ) ) (Mixed_6a): InceptionB( (branch3x3): BasicConv2d( (conv): Conv2d(288, 384, kernel_size=(3, 3), stride=(2, 2), bias=False) (bn): BatchNorm2d(384, eps=0.001, momentum=0.1, affine=True, track_running_stats=True) ) (branch3x3dbl_1): BasicConv2d( (conv): Conv2d(288, 64, kernel_size=(1, 1), stride=(1, 1), bias=False) (bn): BatchNorm2d(64, eps=0.001, momentum=0.1, affine=True, track_running_stats=True) ) (branch3x3dbl_2): BasicConv2d( (conv): Conv2d(64, 96, kernel_size=(3, 3), stride=(1, 1), padding=(1, 1), bias=False) (bn): BatchNorm2d(96, eps=0.001, momentum=0.1, affine=True, track_running_stats=True) ) (branch3x3dbl_3): BasicConv2d( (conv): Conv2d(96, 96, kernel_size=(3, 3), stride=(2, 2), bias=False) (bn): BatchNorm2d(96, eps=0.001, momentum=0.1, affine=True, track_running_stats=True) ) ) (Mixed_6b): InceptionC( (branch1x1): BasicConv2d( (conv): Conv2d(768, 192, kernel_size=(1, 1), stride=(1, 1), bias=False) (bn): BatchNorm2d(192, eps=0.001, momentum=0.1, affine=True, track_running_stats=True) ) (branch7x7_1): BasicConv2d( (conv): Conv2d(768, 128, kernel_size=(1, 1), stride=(1, 1), bias=False) (bn): BatchNorm2d(128, eps=0.001, momentum=0.1, affine=True, track_running_stats=True) ) (branch7x7_2): BasicConv2d( (conv): Conv2d(128, 128, kernel_size=(1, 7), stride=(1, 1), padding=(0, 3), bias=False) (bn): BatchNorm2d(128, eps=0.001, momentum=0.1, affine=True, track_running_stats=True) ) (branch7x7_3): BasicConv2d( (conv): Conv2d(128, 192, kernel_size=(7, 1), stride=(1, 1), padding=(3, 0), bias=False) (bn): BatchNorm2d(192, eps=0.001, momentum=0.1, affine=True, track_running_stats=True) ) (branch7x7dbl_1): BasicConv2d( (conv): Conv2d(768, 128, kernel_size=(1, 1), stride=(1, 1), bias=False) (bn): BatchNorm2d(128, eps=0.001, momentum=0.1, affine=True, track_running_stats=True) ) (branch7x7dbl_2): BasicConv2d( (conv): Conv2d(128, 128, kernel_size=(7, 1), stride=(1, 1), padding=(3, 0), bias=False) (bn): BatchNorm2d(128, eps=0.001, momentum=0.1, affine=True, track_running_stats=True) ) (branch7x7dbl_3): BasicConv2d( (conv): Conv2d(128, 128, kernel_size=(1, 7), stride=(1, 1), padding=(0, 3), bias=False) (bn): BatchNorm2d(128, eps=0.001, momentum=0.1, affine=True, track_running_stats=True) ) (branch7x7dbl_4): BasicConv2d( (conv): Conv2d(128, 128, kernel_size=(7, 1), stride=(1, 1), padding=(3, 0), bias=False) (bn): BatchNorm2d(128, eps=0.001, momentum=0.1, affine=True, track_running_stats=True) ) (branch7x7dbl_5): BasicConv2d( (conv): Conv2d(128, 192, kernel_size=(1, 7), stride=(1, 1), padding=(0, 3), bias=False) (bn): BatchNorm2d(192, eps=0.001, momentum=0.1, affine=True, track_running_stats=True) ) (branch_pool): BasicConv2d( (conv): Conv2d(768, 192, kernel_size=(1, 1), stride=(1, 1), bias=False) (bn): BatchNorm2d(192, eps=0.001, momentum=0.1, affine=True, track_running_stats=True) ) ) (Mixed_6c): InceptionC( (branch1x1): BasicConv2d( (conv): Conv2d(768, 192, kernel_size=(1, 1), stride=(1, 1), bias=False) (bn): BatchNorm2d(192, eps=0.001, momentum=0.1, affine=True, track_running_stats=True) ) (branch7x7_1): BasicConv2d( (conv): Conv2d(768, 160, kernel_size=(1, 1), stride=(1, 1), bias=False) (bn): BatchNorm2d(160, eps=0.001, momentum=0.1, affine=True, track_running_stats=True) ) (branch7x7_2): BasicConv2d( (conv): Conv2d(160, 160, kernel_size=(1, 7), stride=(1, 1), padding=(0, 3), bias=False) (bn): BatchNorm2d(160, eps=0.001, momentum=0.1, affine=True, track_running_stats=True) ) (branch7x7_3): BasicConv2d( (conv): Conv2d(160, 192, kernel_size=(7, 1), stride=(1, 1), padding=(3, 0), bias=False) (bn): BatchNorm2d(192, eps=0.001, momentum=0.1, affine=True, track_running_stats=True) ) (branch7x7dbl_1): BasicConv2d( (conv): Conv2d(768, 160, kernel_size=(1, 1), stride=(1, 1), bias=False) (bn): BatchNorm2d(160, eps=0.001, momentum=0.1, affine=True, track_running_stats=True) ) (branch7x7dbl_2): BasicConv2d( (conv): Conv2d(160, 160, kernel_size=(7, 1), stride=(1, 1), padding=(3, 0), bias=False) (bn): BatchNorm2d(160, eps=0.001, momentum=0.1, affine=True, track_running_stats=True) ) (branch7x7dbl_3): BasicConv2d( (conv): Conv2d(160, 160, kernel_size=(1, 7), stride=(1, 1), padding=(0, 3), bias=False) (bn): BatchNorm2d(160, eps=0.001, momentum=0.1, affine=True, track_running_stats=True) ) (branch7x7dbl_4): BasicConv2d( (conv): Conv2d(160, 160, kernel_size=(7, 1), stride=(1, 1), padding=(3, 0), bias=False) (bn): BatchNorm2d(160, eps=0.001, momentum=0.1, affine=True, track_running_stats=True) ) (branch7x7dbl_5): BasicConv2d( (conv): Conv2d(160, 192, kernel_size=(1, 7), stride=(1, 1), padding=(0, 3), bias=False) (bn): BatchNorm2d(192, eps=0.001, momentum=0.1, affine=True, track_running_stats=True) ) (branch_pool): BasicConv2d( (conv): Conv2d(768, 192, kernel_size=(1, 1), stride=(1, 1), bias=False) (bn): BatchNorm2d(192, eps=0.001, momentum=0.1, affine=True, track_running_stats=True) ) ) (Mixed_6d): InceptionC( (branch1x1): BasicConv2d( (conv): Conv2d(768, 192, kernel_size=(1, 1), stride=(1, 1), bias=False) (bn): BatchNorm2d(192, eps=0.001, momentum=0.1, affine=True, track_running_stats=True) ) (branch7x7_1): BasicConv2d( (conv): Conv2d(768, 160, kernel_size=(1, 1), stride=(1, 1), bias=False) (bn): BatchNorm2d(160, eps=0.001, momentum=0.1, affine=True, track_running_stats=True) ) (branch7x7_2): BasicConv2d( (conv): Conv2d(160, 160, kernel_size=(1, 7), stride=(1, 1), padding=(0, 3), bias=False) (bn): BatchNorm2d(160, eps=0.001, momentum=0.1, affine=True, track_running_stats=True) ) (branch7x7_3): BasicConv2d( (conv): Conv2d(160, 192, kernel_size=(7, 1), stride=(1, 1), padding=(3, 0), bias=False) (bn): BatchNorm2d(192, eps=0.001, momentum=0.1, affine=True, track_running_stats=True) ) (branch7x7dbl_1): BasicConv2d( (conv): Conv2d(768, 160, kernel_size=(1, 1), stride=(1, 1), bias=False) (bn): BatchNorm2d(160, eps=0.001, momentum=0.1, affine=True, track_running_stats=True) ) (branch7x7dbl_2): BasicConv2d( (conv): Conv2d(160, 160, kernel_size=(7, 1), stride=(1, 1), padding=(3, 0), bias=False) (bn): BatchNorm2d(160, eps=0.001, momentum=0.1, affine=True, track_running_stats=True) ) (branch7x7dbl_3): BasicConv2d( (conv): Conv2d(160, 160, kernel_size=(1, 7), stride=(1, 1), padding=(0, 3), bias=False) (bn): BatchNorm2d(160, eps=0.001, momentum=0.1, affine=True, track_running_stats=True) ) (branch7x7dbl_4): BasicConv2d( (conv): Conv2d(160, 160, kernel_size=(7, 1), stride=(1, 1), padding=(3, 0), bias=False) (bn): BatchNorm2d(160, eps=0.001, momentum=0.1, affine=True, track_running_stats=True) ) (branch7x7dbl_5): BasicConv2d( (conv): Conv2d(160, 192, kernel_size=(1, 7), stride=(1, 1), padding=(0, 3), bias=False) (bn): BatchNorm2d(192, eps=0.001, momentum=0.1, affine=True, track_running_stats=True) ) (branch_pool): BasicConv2d( (conv): Conv2d(768, 192, kernel_size=(1, 1), stride=(1, 1), bias=False) (bn): BatchNorm2d(192, eps=0.001, momentum=0.1, affine=True, track_running_stats=True) ) ) (Mixed_6e): InceptionC( (branch1x1): BasicConv2d( (conv): Conv2d(768, 192, kernel_size=(1, 1), stride=(1, 1), bias=False) (bn): BatchNorm2d(192, eps=0.001, momentum=0.1, affine=True, track_running_stats=True) ) (branch7x7_1): BasicConv2d( (conv): Conv2d(768, 192, kernel_size=(1, 1), stride=(1, 1), bias=False) (bn): BatchNorm2d(192, eps=0.001, momentum=0.1, affine=True, track_running_stats=True) ) (branch7x7_2): BasicConv2d( (conv): Conv2d(192, 192, kernel_size=(1, 7), stride=(1, 1), padding=(0, 3), bias=False) (bn): BatchNorm2d(192, eps=0.001, momentum=0.1, affine=True, track_running_stats=True) ) (branch7x7_3): BasicConv2d( (conv): Conv2d(192, 192, kernel_size=(7, 1), stride=(1, 1), padding=(3, 0), bias=False) (bn): BatchNorm2d(192, eps=0.001, momentum=0.1, affine=True, track_running_stats=True) ) (branch7x7dbl_1): BasicConv2d( (conv): Conv2d(768, 192, kernel_size=(1, 1), stride=(1, 1), bias=False) (bn): BatchNorm2d(192, eps=0.001, momentum=0.1, affine=True, track_running_stats=True) ) (branch7x7dbl_2): BasicConv2d( (conv): Conv2d(192, 192, kernel_size=(7, 1), stride=(1, 1), padding=(3, 0), bias=False) (bn): BatchNorm2d(192, eps=0.001, momentum=0.1, affine=True, track_running_stats=True) ) (branch7x7dbl_3): BasicConv2d( (conv): Conv2d(192, 192, kernel_size=(1, 7), stride=(1, 1), padding=(0, 3), bias=False) (bn): BatchNorm2d(192, eps=0.001, momentum=0.1, affine=True, track_running_stats=True) ) (branch7x7dbl_4): BasicConv2d( (conv): Conv2d(192, 192, kernel_size=(7, 1), stride=(1, 1), padding=(3, 0), bias=False) (bn): BatchNorm2d(192, eps=0.001, momentum=0.1, affine=True, track_running_stats=True) ) (branch7x7dbl_5): BasicConv2d( (conv): Conv2d(192, 192, kernel_size=(1, 7), stride=(1, 1), padding=(0, 3), bias=False) (bn): BatchNorm2d(192, eps=0.001, momentum=0.1, affine=True, track_running_stats=True) ) (branch_pool): BasicConv2d( (conv): Conv2d(768, 192, kernel_size=(1, 1), stride=(1, 1), bias=False) (bn): BatchNorm2d(192, eps=0.001, momentum=0.1, affine=True, track_running_stats=True) ) ) (AuxLogits): InceptionAux( (conv0): BasicConv2d( (conv): Conv2d(768, 128, kernel_size=(1, 1), stride=(1, 1), bias=False) (bn): BatchNorm2d(128, eps=0.001, momentum=0.1, affine=True, track_running_stats=True) ) (conv1): BasicConv2d( (conv): Conv2d(128, 768, kernel_size=(5, 5), stride=(1, 1), bias=False) (bn): BatchNorm2d(768, eps=0.001, momentum=0.1, affine=True, track_running_stats=True) ) (fc): Linear(in_features=768, out_features=1000, bias=True) ) (Mixed_7a): InceptionD( (branch3x3_1): BasicConv2d( (conv): Conv2d(768, 192, kernel_size=(1, 1), stride=(1, 1), bias=False) (bn): BatchNorm2d(192, eps=0.001, momentum=0.1, affine=True, track_running_stats=True) ) (branch3x3_2): BasicConv2d( (conv): Conv2d(192, 320, kernel_size=(3, 3), stride=(2, 2), bias=False) (bn): BatchNorm2d(320, eps=0.001, momentum=0.1, affine=True, track_running_stats=True) ) (branch7x7x3_1): BasicConv2d( (conv): Conv2d(768, 192, kernel_size=(1, 1), stride=(1, 1), bias=False) (bn): BatchNorm2d(192, eps=0.001, momentum=0.1, affine=True, track_running_stats=True) ) (branch7x7x3_2): BasicConv2d( (conv): Conv2d(192, 192, kernel_size=(1, 7), stride=(1, 1), padding=(0, 3), bias=False) (bn): BatchNorm2d(192, eps=0.001, momentum=0.1, affine=True, track_running_stats=True) ) (branch7x7x3_3): BasicConv2d( (conv): Conv2d(192, 192, kernel_size=(7, 1), stride=(1, 1), padding=(3, 0), bias=False) (bn): BatchNorm2d(192, eps=0.001, momentum=0.1, affine=True, track_running_stats=True) ) (branch7x7x3_4): BasicConv2d( (conv): Conv2d(192, 192, kernel_size=(3, 3), stride=(2, 2), bias=False) (bn): BatchNorm2d(192, eps=0.001, momentum=0.1, affine=True, track_running_stats=True) ) ) (Mixed_7b): InceptionE( (branch1x1): BasicConv2d( (conv): Conv2d(1280, 320, kernel_size=(1, 1), stride=(1, 1), bias=False) (bn): BatchNorm2d(320, eps=0.001, momentum=0.1, affine=True, track_running_stats=True) ) (branch3x3_1): BasicConv2d( (conv): Conv2d(1280, 384, kernel_size=(1, 1), stride=(1, 1), bias=False) (bn): BatchNorm2d(384, eps=0.001, momentum=0.1, affine=True, track_running_stats=True) ) (branch3x3_2a): BasicConv2d( (conv): Conv2d(384, 384, kernel_size=(1, 3), stride=(1, 1), padding=(0, 1), bias=False) (bn): BatchNorm2d(384, eps=0.001, momentum=0.1, affine=True, track_running_stats=True) ) (branch3x3_2b): BasicConv2d( (conv): Conv2d(384, 384, kernel_size=(3, 1), stride=(1, 1), padding=(1, 0), bias=False) (bn): BatchNorm2d(384, eps=0.001, momentum=0.1, affine=True, track_running_stats=True) ) (branch3x3dbl_1): BasicConv2d( (conv): Conv2d(1280, 448, kernel_size=(1, 1), stride=(1, 1), bias=False) (bn): BatchNorm2d(448, eps=0.001, momentum=0.1, affine=True, track_running_stats=True) ) (branch3x3dbl_2): BasicConv2d( (conv): Conv2d(448, 384, kernel_size=(3, 3), stride=(1, 1), padding=(1, 1), bias=False) (bn): BatchNorm2d(384, eps=0.001, momentum=0.1, affine=True, track_running_stats=True) ) (branch3x3dbl_3a): BasicConv2d( (conv): Conv2d(384, 384, kernel_size=(1, 3), stride=(1, 1), padding=(0, 1), bias=False) (bn): BatchNorm2d(384, eps=0.001, momentum=0.1, affine=True, track_running_stats=True) ) (branch3x3dbl_3b): BasicConv2d( (conv): Conv2d(384, 384, kernel_size=(3, 1), stride=(1, 1), padding=(1, 0), bias=False) (bn): BatchNorm2d(384, eps=0.001, momentum=0.1, affine=True, track_running_stats=True) ) (branch_pool): BasicConv2d( (conv): Conv2d(1280, 192, kernel_size=(1, 1), stride=(1, 1), bias=False) (bn): BatchNorm2d(192, eps=0.001, momentum=0.1, affine=True, track_running_stats=True) ) ) (Mixed_7c): InceptionE( (branch1x1): BasicConv2d( (conv): Conv2d(2048, 320, kernel_size=(1, 1), stride=(1, 1), bias=False) (bn): BatchNorm2d(320, eps=0.001, momentum=0.1, affine=True, track_running_stats=True) ) (branch3x3_1): BasicConv2d( (conv): Conv2d(2048, 384, kernel_size=(1, 1), stride=(1, 1), bias=False) (bn): BatchNorm2d(384, eps=0.001, momentum=0.1, affine=True, track_running_stats=True) ) (branch3x3_2a): BasicConv2d( (conv): Conv2d(384, 384, kernel_size=(1, 3), stride=(1, 1), padding=(0, 1), bias=False) (bn): BatchNorm2d(384, eps=0.001, momentum=0.1, affine=True, track_running_stats=True) ) (branch3x3_2b): BasicConv2d( (conv): Conv2d(384, 384, kernel_size=(3, 1), stride=(1, 1), padding=(1, 0), bias=False) (bn): BatchNorm2d(384, eps=0.001, momentum=0.1, affine=True, track_running_stats=True) ) (branch3x3dbl_1): BasicConv2d( (conv): Conv2d(2048, 448, kernel_size=(1, 1), stride=(1, 1), bias=False) (bn): BatchNorm2d(448, eps=0.001, momentum=0.1, affine=True, track_running_stats=True) ) (branch3x3dbl_2): BasicConv2d( (conv): Conv2d(448, 384, kernel_size=(3, 3), stride=(1, 1), padding=(1, 1), bias=False) (bn): BatchNorm2d(384, eps=0.001, momentum=0.1, affine=True, track_running_stats=True) ) (branch3x3dbl_3a): BasicConv2d( (conv): Conv2d(384, 384, kernel_size=(1, 3), stride=(1, 1), padding=(0, 1), bias=False) (bn): BatchNorm2d(384, eps=0.001, momentum=0.1, affine=True, track_running_stats=True) ) (branch3x3dbl_3b): BasicConv2d( (conv): Conv2d(384, 384, kernel_size=(3, 1), stride=(1, 1), padding=(1, 0), bias=False) (bn): BatchNorm2d(384, eps=0.001, momentum=0.1, affine=True, track_running_stats=True) ) (branch_pool): BasicConv2d( (conv): Conv2d(2048, 192, kernel_size=(1, 1), stride=(1, 1), bias=False) (bn): BatchNorm2d(192, eps=0.001, momentum=0.1, affine=True, track_running_stats=True) ) ) (fc): Linear(in_features=2048, out_features=1000, bias=True) ) ResNet \u00b6 2015\uff0cKaiming He, Xiangyu Zhang, Shaoqing Ren, Jian Sun \u8bba\u6587 Kaiming He \u4f55\u51ef\u660e\uff08\u97f3\u8bd1\uff09\u8fd9\u4e2a\u5927\u795e\u5927\u5bb6\u4e00\u5b9a\u8981\u8bb0\u4f4f\uff0c\u73b0\u5728\u5f88\u591a\u8bba\u6587\u90fd\u6709\u4ed6\u53c2\u4e0e(mask rcnn, focal loss)\uff0cJian Sun\u5b59\u5251\u8001\u5e08\u5c31\u4e0
…
u4e00\u4e2a\u5dee\u5206\u653e\u5927\u5668\u7684\u4f5c\u7528\u3002\u56fe\u4e2d\u7684\u66f2\u7ebf\u5c31\u662f\u6b8b\u5dee\u4e2d\u7684shoutcut\uff0c\u4ed6\u5c06\u524d\u4e00\u5c42\u7684\u7ed3\u679c\u76f4\u63a5\u8fde\u63a5\u5230\u4e86\u672c\u5c42\uff0c\u4e5f\u5c31\u662f\u4fd7\u79f0\u7684\u8df3\u8fde\u63a5\u3002 \u6211\u4eec\u4ee5\u7ecf\u5178\u7684resnet18\u6765\u770b\u4e00\u4e0b\u7f51\u7edc\u7ed3\u6784 \u56fe\u7247\u6765\u6e90 import torchvision model = torchvision . models . resnet18 ( pretrained = False ) #\u6211\u4eec\u4e0d\u4e0b\u8f7d\u9884\u8bad\u7ec3\u6743\u91cd print ( model ) ResNet( (conv1): Conv2d(3, 64, kernel_size=(7, 7), stride=(2, 2), padding=(3, 3), bias=False) (bn1): BatchNorm2d(64, eps=1e-05, momentum=0.1, affine=True, track_running_stats=True) (relu): ReLU(inplace) (maxpool): MaxPool2d(kernel_size=3, stride=2, padding=1, dilation=1, ceil_mode=False) (layer1): Sequential( (0): BasicBlock( (conv1): Conv2d(64, 64, kernel_size=(3, 3), stride=(1, 1), padding=(1, 1), bias=False) (bn1): BatchNorm2d(64, eps=1e-05, momentum=0.1, affine=True, track_running_stats=True) (relu): ReLU(inplace) (conv2): Conv2d(64, 64, kernel_size=(3, 3), stride=(1, 1), padding=(1, 1), bias=False) (bn2): BatchNorm2d(64, eps=1e-05, momentum=0.1, affine=True, track_running_stats=True) ) (1): BasicBlock( (conv1): Conv2d(64, 64, kernel_size=(3, 3), stride=(1, 1), padding=(1, 1), bias=False) (bn1): BatchNorm2d(64, eps=1e-05, momentum=0.1, affine=True, track_running_stats=True) (relu): ReLU(inplace) (conv2): Conv2d(64, 64, kernel_size=(3, 3), stride=(1, 1), padding=(1, 1), bias=False) (bn2): BatchNorm2d(64, eps=1e-05, momentum=0.1, affine=True, track_running_stats=True) ) ) (layer2): Sequential( (0): BasicBlock( (conv1): Conv2d(64, 128, kernel_size=(3, 3), stride=(2, 2), padding=(1, 1), bias=False) (bn1): BatchNorm2d(128, eps=1e-05, momentum=0.1, affine=True, track_running_stats=True) (relu): ReLU(inplace) (conv2): Conv2d(128, 128, kernel_size=(3, 3), stride=(1, 1), padding=(1, 1), bias=False) (bn2): BatchNorm2d(128, eps=1e-05, momentum=0.1, affine=True, track_running_stats=True) (downsample): Sequential( (0): Conv2d(64, 128, kernel_size=(1, 1), stride=(2, 2), bias=False) (1): BatchNorm2d(128, eps=1e-05, momentum=0.1, affine=True, track_running_stats=True) ) ) (1): BasicBlock( (conv1): Conv2d(128, 128, kernel_size=(3, 3), stride=(1, 1), padding=(1, 1), bias=False) (bn1): BatchNorm2d(128, eps=1e-05, momentum=0.1, affine=True, track_running_stats=True) (relu): ReLU(inplace) (conv2): Conv2d(128, 128, kernel_size=(3, 3), stride=(1, 1), padding=(1, 1), bias=False) (bn2): BatchNorm2d(128, eps=1e-05, momentum=0.1, affine=True, track_running_stats=True) ) ) (layer3): Sequential( (0): BasicBlock( (conv1): Conv2d(128, 256, kernel_size=(3, 3), stride=(2, 2), padding=(1, 1), bias=False) (bn1): BatchNorm2d(256, eps=1e-05, momentum=0.1, affine=True, track_running_stats=True) (relu): ReLU(inplace) (conv2): Conv2d(256, 256, kernel_size=(3, 3), stride=(1, 1), padding=(1, 1), bias=False) (bn2): BatchNorm2d(256, eps=1e-05, momentum=0.1, affine=True, track_running_stats=True) (downsample): Sequential( (0): Conv2d(128, 256, kernel_size=(1, 1), stride=(2, 2), bias=False) (1): BatchNorm2d(256, eps=1e-05, momentum=0.1, affine=True, track_running_stats=True) ) ) (1): BasicBlock( (conv1): Conv2d(256, 256, kernel_size=(3, 3), stride=(1, 1), padding=(1, 1), bias=False) (bn1): BatchNorm2d(256, eps=1e-05, momentum=0.1, affine=True, track_running_stats=True) (relu): ReLU(inplace) (conv2): Conv2d(256, 256, kernel_size=(3, 3), stride=(1, 1), padding=(1, 1), bias=False) (bn2): BatchNorm2d(256, eps=1e-05, momentum=0.1, affine=True, track_running_stats=True) ) ) (layer4): Sequential( (0): BasicBlock( (conv1): Conv2d(256, 512, kernel_size=(3, 3), stride=(2, 2), padding=(1, 1), bias=False) (bn1): BatchNorm2d(512, eps=1e-05, momentum=0.1, affine=True, track_running_stats=True) (relu): ReLU(inplace) (conv2): Conv2d(512, 512, kernel_size=(3, 3), stride=(1, 1), padding=(1, 1), bias=False) (bn2): BatchNorm2d(512, eps=1e-05, momentum=0.1, affine=True, track_running_stats=True) (downsample): Sequential( (0): Conv2d(256, 512, kernel_size=(1, 1), stride=(2, 2), bias=False) (1): BatchNorm2d(512, eps=1e-05, momentum=0.1, affine=True, track_running_stats=True) ) ) (1): BasicBlock( (conv1): Conv2d(512, 512, kernel_size=(3, 3), stride=(1, 1), padding=(1, 1), bias=False) (bn1): BatchNorm2d(512, eps=1e-05, momentum=0.1, affine=True, track_running_stats=True) (relu): ReLU(inplace) (conv2): Conv2d(512, 512, kernel_size=(3, 3), stride=(1, 1), padding=(1, 1), bias=False) (bn2): BatchNorm2d(512, eps=1e-05, momentum=0.1, affine=True, track_running_stats=True) ) ) (avgpool): AvgPool2d(kernel_size=7, stride=1, padding=0) (fc): Linear(in_features=512, out_features=1000, bias=True) ) \u90a3\u4e48\u6211\u4eec\u8be5\u5982\u4f55\u9009\u62e9\u7f51\u7edc\u5462\uff1f \u6765\u6e90 \u4ee5\u4e0a\u8868\u683c\u53ef\u4ee5\u6e05\u695a\u7684\u770b\u5230\u51c6\u786e\u7387\u548c\u8ba1\u7b97\u91cf\u4e4b\u95f4\u7684\u5bf9\u6bd4\u3002\u6211\u7684\u5efa\u8bae\u662f\uff0c\u5c0f\u578b\u56fe\u7247\u5206\u7c7b\u4efb\u52a1\uff0cresnet18\u57fa\u672c\u4e0
…
self , x ): # Max pooling over a (2, 2) window x = F . max_pool2d ( F . relu ( self . conv1 ( x )), ( 2 , 2 )) # If the size is a square you can only specify a single number x = F . max_pool2d ( F . relu ( self . conv2 ( x )), 2 ) x = x . view ( - 1 , self . num_flat_features ( x )) x = F . relu ( self . fc1 ( x )) x = F . relu ( self . fc2 ( x )) x = self . fc3 ( x ) return x def num_flat_features ( self , x ): size = x . size ()[ 1 :] # all dimensions except the batch dimension num_features = 1 for s in size : num_features *= s return num_features net = LeNet5 () print ( net ) LeNet5( (conv1): Conv2d(1, 6, kernel_size=(5, 5), stride=(1, 1)) (conv2): Conv2d(6, 16, kernel_size=(5, 5), stride=(1, 1)) (fc1): Linear(in_features=400, out_features=120, bias=True) (fc2): Linear(in_features=120, out_features=84, bias=True) (fc3): Linear(in_features=84, out_features=10, bias=True) )","title":"LeNet-5"},{"location":"tutorial/chapter02_basics/2_4_convolutional-neural-network/#alexnet","text":"2012\uff0cAlex Krizhevsky \u53ef\u4ee5\u7b97\u4f5cLeNet\u7684\u4e00\u4e2a\u66f4\u6df1\u548c\u66f4\u5e7f\u7684\u7248\u672c\uff0c\u53ef\u4ee5\u7528\u6765\u5b66\u4e60\u66f4\u590d\u6742\u7684\u5bf9\u8c61 \u8bba\u6587 - \u7528rectified linear units\
…
u5224\u65ad\u54ea\u4e2a\u7279\u5f81\u63d0\u53d6\u65b9\u5f0f\u597d\uff0c\u7f51\u7edc\u4f1a\u81ea\u5df1\u89e3\u51b3\uff08\u662f\u4e0d\u662f\u6709\u70b9\u50cfAUTO ML\uff09\uff0c\u5728Pytorch\u4e2d\u5b9e\u73b0\u4e86InceptionA-E\uff0c\u8fd8\u6709InceptionAUX \u6a21\u5757\u3002 # inception_v3\u9700\u8981scipy\uff0c\u6240\u4ee5\u6ca1\u6709\u5b89\u88c5\u7684\u8bddpip install scipy \u4e00\u4e0b import torchvision model = torchvision . models . inception_v3 ( pretrained = False ) #\u6211\u4eec\u4e0d\u4e0b\u8f7d\u9884\u8bad\u7ec3\u6743\u91cd print ( model ) Inception3( (Conv2d_1a_3x3): BasicConv2d( (conv): Conv2d(3, 32, kernel_size=(3, 3), stride=(2, 2), bias=False) (bn): BatchNorm2d(32, eps=0.001, momentum=0.1, affine=True, track_running_stats=True) ) (Conv2d_2a_3x3): BasicConv2d( (conv): Conv2d(32, 32, kernel_size=(3, 3), stride=(1, 1), bias=False) (bn): BatchNorm2d(32, eps=0.001, momentum=0.1, affine=True, track_running_stats=True) ) (Conv2d_2b_3x3): BasicConv2d( (conv): Conv2d(32, 64, kernel_size=(3, 3), stride=(1, 1), padding=(1, 1), bias=False) (bn): BatchNorm2d(64, eps=0.001, momentum=0.1, affine=True, track_running_stats=True) ) (Conv2d_3b_1x1): BasicConv2d( (conv): Conv2d(64, 80, kernel_size=(1, 1), stride=(1, 1), bias=False) (bn): BatchNorm2d(80, eps=0.001, momentum=0.1, affine=True, track_running_stats=True) ) (Conv2d_4a_3x3): BasicConv2d( (conv): Conv2d(80, 192, kernel_size=(3, 3), stride=(1, 1), bias=False) (bn): BatchNorm2d(192, eps=0.001, momentum=0.1, affine=True, track_running_stats=True) ) (Mixed_5b): InceptionA( (branch1x1): BasicConv2d( (conv): Conv2d(192, 64, kernel_size=(1, 1), stride=(1, 1), bias=False) (bn): BatchNorm2d(64, eps=0.001, momentum=0.1, affine=True, track_running_stats=True) ) (branch5x5_1): BasicConv2d( (conv): Conv2d(192, 48, kernel_size=(1, 1), stride=(1, 1), bias=False) (bn): BatchNorm2d(48, eps=0.001, momentum=0.1, affine=True, track_running_stats=True) ) (branch5x5_2): BasicConv2d( (conv): Conv2d(48, 64, kernel_size=(5, 5), stride=(1, 1), padding=(2, 2), bias=False) (bn): BatchNorm2d(64, eps=0.001, momentum=0.1, affine=True, track_running_stats=True) ) (branch3x3dbl_1): BasicConv2d( (conv): Conv2d(192, 64, kernel_size=(1, 1), stride=(1, 1), bias=False) (bn): BatchNorm2d(64, eps=0.001, momentum=0.1, affine=True, track_running_stats=True) ) (branch3x3dbl_2): BasicConv2d( (conv): Conv2d(64, 96, kernel_size=(3, 3), stride=(1, 1), padding=(1, 1), bias=False) (bn): BatchNorm2d(96, eps=0.001, momentum=0.1, affine=True, track_running_stats=True) ) (branch3x3dbl_3): BasicConv2d( (conv): Conv2d(96, 96, kernel_size=(3, 3), stride=(1, 1), padding=(1, 1), bias=False) (bn): BatchNorm2d(96, eps=0.001, momentum=0.1, affine=True, track_running_stats=True) ) (branch_pool): BasicConv2d( (conv): Conv2d(192, 32, kernel_size=(1, 1), stride=(1, 1), bias=False) (bn): BatchNorm2d(32, eps=0.001, momentum=0.1, affine=True, track_running_stats=True) ) ) (Mixed_5c): InceptionA( (branch1x1): BasicConv2d( (conv): Conv2d(256, 64, kernel_size=(1, 1), stride=(1, 1), bias=False) (bn): BatchNorm2d(64, eps=0.001, momentum=0.1, affine=True, track_running_stats=True) ) (branch5x5_1): BasicConv2d( (conv): Conv2d(256, 48, kernel_size=(1, 1), stride=(1, 1), bias=False) (bn): BatchNorm2d(48, eps=0.001, momentum=0.1, affine=True, track_running_stats=True) ) (branch5x5_2): BasicConv2d( (conv): Conv2d(48, 64, kernel_size=(5, 5), stride=(1, 1), padding=(2, 2), bias=False) (bn): BatchNorm2d(64, eps=0.001, momentum=0.1, affine=True, track_running_stats=True) ) (branch3x3dbl_1): BasicConv2d( (conv): Conv2d(256, 64, kernel_size=(1, 1), stride=(1, 1), bias=False) (bn): BatchNorm2d(64, eps=0.001, momentum=0.1, affine=True, track_running_stats=True) ) (branch3x3dbl_2): BasicConv2d( (conv): Conv2d(64, 96, kernel_size=(3, 3), stride=(1, 1), padding=(1, 1), bias=False) (bn): BatchNorm2d(96, eps=0.001, momentum=0.1, affine=True, track_running_stats=True) ) (branch3x3dbl_3): BasicConv2d( (conv): Conv2d(96, 96, kernel_size=(3, 3), stride=(1, 1), padding=(1, 1), bias=False) (bn): BatchNorm2d(96, eps=0.001, momentum=0.1, affine=True, track_running_stats=True) ) (branch_pool): BasicConv2d( (conv): Conv2d(256, 64, kernel_size=(1, 1), stride=(1, 1), bias=False) (bn): BatchNorm2d(64, eps=0.001, momentum=0.1, affine=True, track_running_stats=True) ) ) (Mixed_5d): InceptionA( (branch1x1): BasicConv2d( (conv): Conv2d(288, 64, kernel_size=(1, 1), stride=(1, 1), bias=False) (bn): BatchNorm2d(64, eps=0.001, momentum=0.1, affine=True, track_running_stats=True) ) (branch5x5_1): BasicConv2d( (conv): Conv2d(288, 48, kernel_size=(1, 1), stride=(1, 1), bias=False) (bn): BatchNorm2d(48, eps=0.001, momentum=0.1, affine=True, track_running_stats=True) ) (branch5x5_2): BasicConv2d( (conv): Conv2d(48, 64, kernel_size=(5, 5), stride=(1, 1), padding=(2, 2), bias=False) (bn): BatchNorm2d(64, eps=0.001, momentum=0.1, affine=True, track_running_stats=True) ) (branch3x3dbl_1): BasicConv2d( (conv): Conv2d(288, 64, kernel_size=(1, 1), stride=(1, 1), bias=False) (bn): BatchNorm2d(64, eps=0.001, momentum=0.1, affine=True, track_running_stats=True) ) (branch3x3dbl_2): BasicConv2d( (conv): Conv2d(64, 96, kernel_size=(3, 3), stride=(1, 1), padding=(1, 1), bias=False) (bn): BatchNorm2d(96, eps=0.001, momentum=0.1, affine=True, track_running_stats=True) ) (branch3x3dbl_3): BasicConv2d( (conv): Conv2d(96, 96, kernel_size=(3, 3), stride=(1, 1), padding=(1, 1), bias=False) (bn): BatchNorm2d(96, eps=0.001, momentum=0.1, affine=True, track_running_stats=True) ) (branch_pool): BasicConv2d( (conv): Conv2d(288, 64, kernel_size=(1, 1), stride=(1, 1), bias=False) (bn): BatchNorm2d(64, eps=0.001, momentum=0.1, affine=True, track_running_stats=True) ) ) (Mixed_6a): InceptionB( (branch3x3): BasicConv2d( (conv): Conv2d(288, 384, kernel_size=(3, 3), stride=(2, 2), bias=False) (bn): BatchNorm2d(384, eps=0.001, momentum=0.1, affine=True, track_running_stats=True) ) (branch3x3dbl_1): BasicConv2d( (conv): Conv2d(288, 64, kernel_size=(1, 1), stride=(1, 1), bias=False) (bn): BatchNorm2d(64, eps=0.001, momentum=0.1, affine=True, track_running_stats=True) ) (branch3x3dbl_2): BasicConv2d( (conv): Conv2d(64, 96, kernel_size=(3, 3), stride=(1, 1), padding=(1, 1), bias=False) (bn): BatchNorm2d(96, eps=0.001, momentum=0.1, affine=True, track_running_stats=True) ) (branch3x3dbl_3): BasicConv2d( (conv): Conv2d(96, 96, kernel_size=(3, 3), stride=(2, 2), bias=False) (bn): BatchNorm2d(96, eps=0.001, momentum=0.1, affine=True, track_running_stats=True) ) ) (Mixed_6b): InceptionC( (branch1x1): BasicConv2d( (conv): Conv2d(768, 192, kernel_size=(1, 1), stride=(1, 1), bias=False) (bn): BatchNorm2d(192, eps=0.001, momentum=0.1, affine=True, track_running_stats=True) ) (branch7x7_1): BasicConv2d( (conv): Conv2d(768, 128, kernel_size=(1, 1), stride=(1, 1), bias=False) (bn): BatchNorm2d(128, eps=0.001, momentum=0.1, affine=True, track_running_stats=True) ) (branch7x7_2): BasicConv2d( (conv): Conv2d(128, 128, kernel_size=(1, 7), stride=(1, 1), padding=(0, 3), bias=False) (bn): BatchNorm2d(128, eps=0.001, momentum=0.1, affine=True, track_running_stats=True) ) (branch7x7_3): BasicConv2d( (conv): Conv2d(128, 192, kernel_size=(7, 1), stride=(1, 1), padding=(3, 0), bias=False) (bn): BatchNorm2d(192, eps=0.001, momentum=0.1, affine=True, track_running_stats=True) ) (branch7x7dbl_1): BasicConv2d( (conv): Conv2d(768, 128, kernel_size=(1, 1), stride=(1, 1), bias=False) (bn): BatchNorm2d(128, eps=0.001, momentum=0.1, affine=True, track_running_stats=True) ) (branch7x7dbl_2): BasicConv2d( (conv): Conv2d(128, 128, kernel_size=(7, 1), stride=(1, 1), padding=(3, 0), bias=False) (bn): BatchNorm2d(128, eps=0.001, momentum=0.1, affine=True, track_running_stats=True) ) (branch7x7dbl_3): BasicConv2d( (conv): Conv2d(128, 128, kernel_size=(1, 7), stride=(1, 1), padding=(0, 3), bias=False) (bn): BatchNorm2d(128, eps=0.001, momentum=0.1, affine=True, track_running_stats=True) ) (branch7x7dbl_4): BasicConv2d( (conv): Conv2d(128, 128, kernel_size=(7, 1), stride=(1, 1), padding=(3, 0), bias=False) (bn): BatchNorm2d(128, eps=0.001, momentum=0.1, affine=True, track_running_stats=True) ) (branch7x7dbl_5): BasicConv2d( (conv): Conv2d(128, 192, kernel_size=(1, 7), stride=(1, 1), padding=(0, 3), bias=False) (bn): BatchNorm2d(192, eps=0.001, momentum=0.1, affine=True, track_running_stats=True) ) (branch_pool): BasicConv2d( (conv): Conv2d(768, 192, kernel_size=(1, 1), stride=(1, 1), bias=False) (bn): BatchNorm2d(192, eps=0.001, momentum=0.1, affine=True, track_running_stats=True) ) ) (Mixed_6c): InceptionC( (branch1x1): BasicConv2d( (conv): Conv2d(768, 192, kernel_size=(1, 1), stride=(1, 1), bias=False) (bn): BatchNorm2d(192, eps=0.001, momentum=0.1, affine=True, track_running_stats=True) ) (branch7x7_1): BasicConv2d( (conv): Conv2d(768, 160, kernel_size=(1, 1), stride=(1, 1), bias=False) (bn): BatchNorm2d(160, eps=0.001, momentum=0.1, affine=True, track_running_stats=True) ) (branch7x7_2): BasicConv2d( (conv): Conv2d(160, 160, kernel_size=(1, 7), stride=(1, 1), padding=(0, 3), bias=False) (bn): BatchNorm2d(160, eps=0.001, momentum=0.1, affine=True, track_running_stats=True) ) (branch7x7_3): BasicConv2d( (conv): Conv2d(160, 192, kernel_size=(7, 1), stride=(1, 1), padding=(3, 0), bias=False) (bn): BatchNorm2d(192, eps=0.001, momentum=0.1, affine=True, track_running_stats=True) ) (branch7x7dbl_1): BasicConv2d( (conv): Conv2d(768, 160, kernel_size=(1, 1), stride=(1, 1), bias=False) (bn): BatchNorm2d(160, eps=0.001, momentum=0.1, affine=True, track_running_stats=True) ) (branch7x7dbl_2): BasicConv2d( (conv): Conv2d(160, 160, kernel_size=(7, 1), stride=(1, 1), padding=(3, 0), bias=False) (bn): BatchNorm2d(160, eps=0.001, momentum=0.1, affine=True, track_running_stats=True) ) (branch7x7dbl_3): BasicConv2d( (conv): Conv2d(160, 160, kernel_size=(1, 7), stride=(1, 1), padding=(0, 3), bias=False) (bn): BatchNorm2d(160, eps=0.001, momentum=0.1, affine=True, track_running_stats=True) ) (branch7x7dbl_4): BasicConv2d( (conv): Conv2d(160, 160, kernel_size=(7, 1), stride=(1, 1), padding=(3, 0), bias=False) (bn): BatchNorm2d(160, eps=0.001, momentum=0.1, affine=True, track_running_stats=True) ) (branch7x7dbl_5): BasicConv2d( (conv): Conv2d(160, 192, kernel_size=(1, 7), stride=(1, 1), padding=(0, 3), bias=False) (bn): BatchNorm2d(192, eps=0.001, momentum=0.1, affine=True, track_running_stats=True) ) (branch_pool): BasicConv2d( (conv): Conv2d(768, 192, kernel_size=(1, 1), stride=(1, 1), bias=False) (bn): BatchNorm2d(192, eps=0.001, momentum=0.1, affine=True, track_running_stats=True) ) ) (Mixed_6d): InceptionC( (branch1x1): BasicConv2d( (conv): Conv2d(768, 192, kernel_size=(1, 1), stride=(1, 1), bias=False) (bn): BatchNorm2d(192, eps=0.001, momentum=0.1, affine=True, track_running_stats=True) ) (branch7x7_1): BasicConv2d( (conv): Conv2d(768, 160, kernel_size=(1, 1), stride=(1, 1), bias=False) (bn): BatchNorm2d(160, eps=0.001, momentum=0.1, affine=True, track_running_stats=True) ) (branch7x7_2): BasicConv2d( (conv): Conv2d(160, 160, kernel_size=(1, 7), stride=(1, 1), padding=(0, 3), bias=False) (bn): BatchNorm2d(160, eps=0.001, momentum=0.1, affine=True, track_running_stats=True) ) (branch7x7_3): BasicConv2d( (conv): Conv2d(160, 192, kernel_size=(7, 1), stride=(1, 1), padding=(3, 0), bias=False) (bn): BatchNorm2d(192, eps=0.001, momentum=0.1, affine=True, track_running_stats=True) ) (branch7x7dbl_1): BasicConv2d( (conv): Conv2d(768, 160, kernel_size=(1, 1), stride=(1, 1), bias=False) (bn): BatchNorm2d(160, eps=0.001, momentum=0.1, affine=True, track_running_stats=True) ) (branch7x7dbl_2): BasicConv2d( (conv): Conv2d(160, 160, kernel_size=(7, 1), stride=(1, 1), padding=(3, 0), bias=False) (bn): BatchNorm2d(160, eps=0.001, momentum=0.1, affine=True, track_running_stats=True) ) (branch7x7dbl_3): BasicConv2d( (conv): Conv2d(160, 160, kernel_size=(1, 7), stride=(1, 1), padding=(0, 3), bias=False) (bn): BatchNorm2d(160, eps=0.001, momentum=0.1, affine=True, track_running_stats=True) ) (branch7x7dbl_4): BasicConv2d( (conv): Conv2d(160, 160, kernel_size=(7, 1), stride=(1, 1), padding=(3, 0), bias=False) (bn): BatchNorm2d(160, eps=0.001, momentum=0.1, affine=True, track_running_stats=True) ) (branch7x7dbl_5): BasicConv2d( (conv): Conv2d(160, 192, kernel_size=(1, 7), stride=(1, 1), padding=(0, 3), bias=False) (bn): BatchNorm2d(192, eps=0.001, momentum=0.1, affine=True, track_running_stats=True) ) (branch_pool): BasicConv2d( (conv): Conv2d(768, 192, kernel_size=(1, 1), stride=(1, 1), bias=False) (bn): BatchNorm2d(192, eps=0.001, momentum=0.1, affine=True, track_running_stats=True) ) ) (Mixed_6e): InceptionC( (branch1x1): BasicConv2d( (conv): Conv2d(768, 192, kernel_size=(1, 1), stride=(1, 1), bias=False) (bn): BatchNorm2d(192, eps=0.001, momentum=0.1, affine=True, track_running_stats=True) ) (branch7x7_1): BasicConv2d( (conv): Conv2d(768, 192, kernel_size=(1, 1), stride=(1, 1), bias=False) (bn): BatchNorm2d(192, eps=0.001, momentum=0.1, affine=True, track_running_stats=True) ) (branch7x7_2): BasicConv2d( (conv): Conv2d(192, 192, kernel_size=(1, 7), stride=(1, 1), padding=(0, 3), bias=False) (bn): BatchNorm2d(192, eps=0.001, momentum=0.1, affine=True, track_running_stats=True) ) (branch7x7_3): BasicConv2d( (conv): Conv2d(192, 192, kernel_size=(7, 1), stride=(1, 1), padding=(3, 0), bias=False) (bn): BatchNorm2d(192, eps=0.001, momentum=0.1, affine=True, track_running_stats=True) ) (branch7x7dbl_1): BasicConv2d( (conv): Conv2d(768, 192, kernel_size=(1, 1), stride=(1, 1), bias=False) (bn): BatchNorm2d(192, eps=0.001, momentum=0.1, affine=True, track_running_stats=True) ) (branch7x7dbl_2): BasicConv2d( (conv): Conv2d(192, 192, kernel_size=(7, 1), stride=(1, 1), padding=(3, 0), bias=False) (bn): BatchNorm2d(192, eps=0.001, momentum=0.1, affine=True, track_running_stats=True) ) (branch7x7dbl_3): BasicConv2d( (conv): Conv2d(192, 192, kernel_size=(1, 7), stride=(1, 1), padding=(0, 3), bias=False) (bn): BatchNorm2d(192, eps=0.001, momentum=0.1, affine=True, track_running_stats=True) ) (branch7x7dbl_4): BasicConv2d( (conv): Conv2d(192, 192, kernel_size=(7, 1), stride=(1, 1), padding=(3, 0), bias=False) (bn): BatchNorm2d(192, eps=0.001, momentum=0.1, affine=True, track_running_stats=True) ) (branch7x7dbl_5): BasicConv2d( (conv): Conv2d(192, 192, kernel_size=(1, 7), stride=(1, 1), padding=(0, 3), bias=False) (bn): BatchNorm2d(192, eps=0.001, momentum=0.1, affine=True, track_running_stats=True) ) (branch_pool): BasicConv2d( (conv): Conv2d(768, 192, kernel_size=(1, 1), stride=(1, 1), bias=False) (bn): BatchNorm2d(192, eps=0.001, momentum=0.1, affine=True, track_running_stats=True) ) ) (AuxLogits): InceptionAux( (conv0): BasicConv2d( (conv): Conv2d(768, 128, kernel_size=(1, 1), stride=(1, 1), bias=False) (bn): BatchNorm2d(128, eps=0.001, momentum=0.1, affine=True, track_running_stats=True) ) (conv1): BasicConv2d( (conv): Conv2d(128, 768, kernel_size=(5, 5), stride=(1, 1), bias=False) (bn): BatchNorm2d(768, eps=0.001, momentum=0.1, affine=True, track_running_stats=True) ) (fc): Linear(in_features=768, out_features=1000, bias=True) ) (Mixed_7a): InceptionD( (branch3x3_1): BasicConv2d( (conv): Conv2d(768, 192, kernel_size=(1, 1), stride=(1, 1), bias=False) (bn): BatchNorm2d(192, eps=0.001, momentum=0.1, affine=True, track_running_stats=True) ) (branch3x3_2): BasicConv2d( (conv): Conv2d(192, 320, kernel_size=(3, 3), stride=(2, 2), bias=False) (bn): BatchNorm2d(320, eps=0.001, momentum=0.1, affine=True, track_running_stats=True) ) (branch7x7x3_1): BasicConv2d( (conv): Conv2d(768, 192, kernel_size=(1, 1), stride=(1, 1), bias=False) (bn): BatchNorm2d(192, eps=0.001, momentum=0.1, affine=True, track_running_stats=True) ) (branch7x7x3_2): BasicConv2d( (conv): Conv2d(192, 192, kernel_size=(1, 7), stride=(1, 1), padding=(0, 3), bias=False) (bn): BatchNorm2d(192, eps=0.001, momentum=0.1, affine=True, track_running_stats=True) ) (branch7x7x3_3): BasicConv2d( (conv): Conv2d(192, 192, kernel_size=(7, 1), stride=(1, 1), padding=(3, 0), bias=False) (bn): BatchNorm2d(192, eps=0.001, momentum=0.1, affine=True, track_running_stats=True) ) (branch7x7x3_4): BasicConv2d( (conv): Conv2d(192, 192, kernel_size=(3, 3), stride=(2, 2), bias=False) (bn): BatchNorm2d(192, eps=0.001, momentum=0.1, affine=True, track_running_stats=True) ) ) (Mixed_7b): InceptionE( (branch1x1): BasicConv2d( (conv): Conv2d(1280, 320, kernel_size=(1, 1), stride=(1, 1), bias=False) (bn): BatchNorm2d(320, eps=0.001, momentum=0.1, affine=True, track_running_stats=True) ) (branch3x3_1): BasicConv2d( (conv): Conv2d(1280, 384, kernel_size=(1, 1), stride=(1, 1), bias=False) (bn): BatchNorm2d(384, eps=0.001, momentum=0.1, affine=True, track_running_stats=True) ) (branch3x3_2a): BasicConv2d( (conv): Conv2d(384, 384, kernel_size=(1, 3), stride=(1, 1), padding=(0, 1), bias=False) (bn): BatchNorm2d(384, eps=0.001, momentum=0.1, affine=True, track_running_stats=True) ) (branch3x3_2b): BasicConv2d( (conv): Conv2d(384, 384, kernel_size=(3, 1), stride=(1, 1), padding=(1, 0), bias=False) (bn): BatchNorm2d(384, eps=0.001, momentum=0.1, affine=True, track_running_stats=True) ) (branch3x3dbl_1): BasicConv2d( (conv): Conv2d(1280, 448, kernel_size=(1, 1), stride=(1, 1), bias=False) (bn): BatchNorm2d(448, eps=0.001, momentum=0.1, affine=True, track_running_stats=True) ) (branch3x3dbl_2): BasicConv2d( (conv): Conv2d(448, 384, kernel_size=(3, 3), stride=(1, 1), padding=(1, 1), bias=False) (bn): BatchNorm2d(384, eps=0.001, momentum=0.1, affine=True, track_running_stats=True) ) (branch3x3dbl_3a): BasicConv2d( (conv): Conv2d(384, 384, kernel_size=(1, 3), stride=(1, 1), padding=(0, 1), bias=False) (bn): BatchNorm2d(384, eps=0.001, momentum=0.1, affine=True, track_running_stats=True) ) (branch3x3dbl_3b): BasicConv2d( (conv): Conv2d(384, 384, kernel_size=(3, 1), stride=(1, 1), padding=(1, 0), bias=False) (bn): BatchNorm2d(384, eps=0.001, momentum=0.1, affine=True, track_running_stats=True) ) (branch_pool): BasicConv2d( (conv): Conv2d(1280, 192, kernel_size=(1, 1), stride=(1, 1), bias=False) (bn): BatchNorm2d(192, eps=0.001, momentum=0.1, affine=True, track_running_stats=True) ) ) (Mixed_7c): InceptionE( (branch1x1): BasicConv2d( (conv): Conv2d(2048, 320, kernel_size=(1, 1), stride=(1, 1), bias=False) (bn): BatchNorm2d(320, eps=0.001, momentum=0.1, affine=True, track_running_stats=True) ) (branch3x3_1): BasicConv2d( (conv): Conv2d(2048, 384, kernel_size=(1, 1), stride=(1, 1), bias=False) (bn): BatchNorm2d(384, eps=0.001, momentum=0.1, affine=True, track_running_stats=True) ) (branch3x3_2a): BasicConv2d( (conv): Conv2d(384, 384, kernel_size=(1, 3), stride=(1, 1), padding=(0, 1), bias=False) (bn): BatchNorm2d(384, eps=0.001, momentum=0.1, affine=True, track_running_stats=True) ) (branch3x3_2b): BasicConv2d( (conv): Conv2d(384, 384, kernel_size=(3, 1), stride=(1, 1), padding=(1, 0), bias=False) (bn): BatchNorm2d(384, eps=0.001, momentum=0.1, affine=True, track_running_stats=True) ) (branch3x3dbl_1): BasicConv2d( (conv): Conv2d(2048, 448, kernel_size=(1, 1), stride=(1, 1), bias=False) (bn): BatchNorm2d(448, eps=0.001, momentum=0.1, affine=True, track_running_stats=True) ) (branch3x3dbl_2): BasicConv2d( (conv): Conv2d(448, 384, kernel_size=(3, 3), stride=(1, 1), padding=(1, 1), bias=False) (bn): BatchNorm2d(384, eps=0.001, momentum=0.1, affine=True, track_running_stats=True) ) (branch3x3dbl_3a): BasicConv2d( (conv): Conv2d(384, 384, kernel_size=(1, 3), stride=(1, 1), padding=(0, 1), bias=False) (bn): BatchNorm2d(384, eps=0.001, momentum=0.1, affine=True, track_running_stats=True) ) (branch3x3dbl_3b): BasicConv2d( (conv): Conv2d(384, 384, kernel_size=(3, 1), stride=(1, 1), padding=(1, 0), bias=False) (bn): BatchNorm2d(384, eps=0.001, momentum=0.1, affine=True, track_running_stats=True) ) (branch_pool): BasicConv2d( (conv): Conv2d(2048, 192, kernel_size=(1, 1), stride=(1, 1), bias=False) (bn): BatchNorm2d(192, eps=0.001, momentum=0.1, affine=True, track_running_stats=True) ) ) (fc): Linear(in_features=2048, out_features=1000, bias=True) )","title":"GoogLeNet (Inception)"},{"location":"tutorial/chapter02_basics/2_4_convolutional-neural-network/#resnet","text":"2015\uff0cKaiming He, Xiangyu Zhang, Shaoqing Ren, Jian Sun \u8bba\u6587 Kaiming He \u4f55\u51ef\u660e\uff08\u97f3\u8bd1\uff09\u8fd9\u4e2a\u5927\u795e\u5927\u5bb6\u4e00\u5b9a\u8981\u8bb0\u4f4f\uff0c\u73b0\u5728\u5f88\u591a\u8bb
…
\u51bb\u7ed3 for param in model_ft . parameters (): param . requires_grad = False # \u8fd9\u91cc\u6253\u5370\u4e0b\u5168\u8fde\u63a5\u5c42\u7684\u4fe1\u606f print ( model_ft . fc ) num_fc_ftr = model_ft . fc . in_features #\u83b7\u53d6\u5230fc\u5c42\u7684\u8f93\u5165 model_ft . fc = nn . Linear ( num_fc_ftr , len ( breeds )) # \u5b9a\u4e49\u4e00\u4e2a\u65b0\u7684FC\u5c42 model_ft = model_ft . to ( DEVICE ) # \u653e\u5230\u8bbe\u5907\u4e2d print ( model_ft ) # \u6700\u540e\u518d\u6253\u5370\u4e00\u4e0b\u65b0\u7684\u6a21\u578b Linear(in_features=2048, out_features=1000, bias=True) ResNet( (conv1): Conv2d(3, 64, kernel_size=(7, 7), stride=(2, 2), padding=(3, 3), bias=False) (bn1): BatchNorm2d(64, eps=1e-05, momentum=0.1, affine=True, track_running_stats=True) (relu): ReLU(inplace) (maxpool): MaxPool2d(kernel_size=3, stride=2, padding=1, dilation=1, ceil_mode=False) (layer1): Sequential( (0): Bottleneck( (conv1): Conv2d(64, 64, kernel_size=(1, 1), stride=(1, 1), bias=False) (bn1): BatchNorm2d(64, eps=1e-05, momentum=0.1, affine=True, track_running_stats=True) (conv2): Conv2d(64, 64, kernel_size=(3, 3), stride=(1, 1), padding=(1, 1), bias=False) (bn2): BatchNorm2d(64, eps=1e-05, momentum=0.1, affine=True, track_running_stats=True) (conv3): Conv2d(64, 256, kernel_size=(1, 1), stride=(1, 1), bias=False) (bn3): BatchNorm2d(256, eps=1e-05, momentum=0.1, affine=True, track_running_stats=True) (relu): ReLU(inplace) (downsample): Sequential( (0): Conv2d(64, 256, kernel_size=(1, 1), stride=(1, 1), bias=False) (1): BatchNorm2d(256, eps=1e-05, momentum=0.1, affine=True, track_running_stats=True) ) ) (1): Bottleneck( (conv1): Conv2d(256, 64, kernel_size=(1, 1), stride=(1, 1), bias=False) (bn1): BatchNorm2d(64, eps=1e-05, momentum=0.1, affine=True, track_running_stats=True) (conv2): Conv2d(64, 64, kernel_size=(3, 3), stride=(1, 1), padding=(1, 1), bias=False) (bn2): BatchNorm2d(64, eps=1e-05, momentum=0.1, affine=True, track_running_stats=True) (conv3): Conv2d(64, 256, kernel_size=(1, 1), stride=(1, 1), bias=False) (bn3): BatchNorm2d(256, eps=1e-05, momentum=0.1, affine=True, track_running_stats=True) (relu): ReLU(inplace) ) (2): Bottleneck( (conv1): Conv2d(256, 64, kernel_size=(1, 1), stride=(1, 1), bias=False) (bn1): BatchNorm2d(64, eps=1e-05, momentum=0.1, affine=True, track_running_stats=True) (conv2): Conv2d(64, 64, kernel_size=(3, 3), stride=(1, 1), padding=(1, 1), bias=False) (bn2): BatchNorm2d(64, eps=1e-05, momentum=0.1, affine=True, track_running_stats=True) (conv3): Conv2d(64, 256, kernel_size=(1, 1), stride=(1, 1), bias=False) (bn3): BatchNorm2d(256, eps=1e-05, momentum=0.1, affine=True, track_running_stats=True) (relu): ReLU(inplace) ) ) (layer2): Sequential( (0): Bottleneck( (conv1): Conv2d(256, 128, kernel_size=(1, 1), stride=(1, 1), bias=False) (bn1): BatchNorm2d(128, eps=1e-05, momentum=0.1, affine=True, track_running_stats=True) (conv2): Conv2d(128, 128, kernel_size=(3, 3), stride=(2, 2), padding=(1, 1), bias=False) (bn2): BatchNorm2d(128, eps=1e-05, momentum=0.1, affine=True, track_running_stats=True) (conv3): Conv2d(128, 512, kernel_size=(1, 1), stride=(1, 1), bias=False) (bn3): BatchNorm2d(512, eps=1e-05, momentum=0.1, affine=True, track_running_stats=True) (relu): ReLU(inplace) (downsample): Sequential( (0): Conv2d(256, 512, kernel_size=(1, 1), stride=(2, 2), bias=False) (1): BatchNorm2d(512, eps=1e-05, momentum=0.1, affine=True, track_running_stats=True) ) ) (1): Bottleneck( (conv1): Conv2d(512, 128, kernel_size=(1, 1), stride=(1, 1), bias=False) (bn1): BatchNorm2d(128, eps=1e-05, momentum=0.1, affine=True, track_running_stats=True) (conv2): Conv2d(128, 128, kernel_size=(3, 3), stride=(1, 1), padding=(1, 1), bias=False) (bn2): BatchNorm2d(128, eps=1e-05, momentum=0.1, affine=True, track_running_stats=True) (conv3): Conv2d(128, 512, kernel_size=(1, 1), stride=(1, 1), bias=False) (bn3): BatchNorm2d(512, eps=1e-05, momentum=0.1, affine=True, track_running_stats=True) (relu): ReLU(inplace) ) (2): Bottleneck( (conv1): Conv2d(512, 128, kernel_size=(1, 1), stride=(1, 1), bias=False) (bn1): BatchNorm2d(128, eps=1e-05, momentum=0.1, affine=True, track_running_stats=True) (conv2): Conv2d(128, 128, kernel_size=(3, 3), stride=(1, 1), padding=(1, 1), bias=False) (bn2): BatchNorm2d(128, eps=1e-05, momentum=0.1, affine=True, track_running_stats=True) (conv3): Conv2d(128, 512, kernel_size=(1, 1), stride=(1, 1), bias=False) (bn3): BatchNorm2d(512, eps=1e-05, momentum=0.1, affine=True, track_running_stats=True) (relu): ReLU(inplace) ) (3): Bottleneck( (conv1): Conv2d(512, 128, kernel_size=(1, 1), stride=(1, 1), bias=False) (bn1): BatchNorm2d(128, eps=1e-05, momentum=0.1, affine=True, track_running_stats=True) (conv2): Conv2d(128, 128, kernel_size=(3, 3), stride=(1, 1), padding=(1, 1), bias=False) (bn2): BatchNorm2d(128, eps=1e-05, momentum=0.1, affine=True, track_running_stats=True) (conv3): Conv2d(128, 512, kernel_size=(1, 1), stride=(1, 1), bias=False) (bn3): BatchNorm2d(512, eps=1e-05, momentum=0.1, affine=True, track_running_stats=True) (relu): ReLU(inplace) ) ) (layer3): Sequential( (0): Bottleneck( (conv1): Conv2d(512, 256, kernel_size=(1, 1), stride=(1, 1), bias=False) (bn1): BatchNorm2d(256, eps=1e-05, momentum=0.1, affine=True, track_running_stats=True) (conv2): Conv2d(256, 256, kernel_size=(3, 3), stride=(2, 2), padding=(1, 1), bias=False) (bn2): BatchNorm2d(256, eps=1e-05, momentum=0.1, affine=True, track_running_stats=True) (conv3): Conv2d(256, 1024, kernel_size=(1, 1), stride=(1, 1), bias=False) (bn3): BatchNorm2d(1024, eps=1e-05, momentum=0.1, affine=True, track_running_stats=True) (relu): ReLU(inplace) (downsample): Sequential( (0): Conv2d(512, 1024, kernel_size=(1, 1), stride=(2, 2), bias=False) (1): BatchNorm2d(1024, eps=1e-05, momentum=0.1, affine=True, track_running_stats=True) ) ) (1): Bottleneck( (conv1): Conv2d(1024, 256, kernel_size=(1, 1), stride=(1, 1), bias=False) (bn1): BatchNorm2d(256, eps=1e-05, momentum=0.1, affine=True, track_running_stats=True) (conv2): Conv2d(256, 256, kernel_size=(3, 3), stride=(1, 1), padding=(1, 1), bias=False) (bn2): BatchNorm2d(256, eps=1e-05, momentum=0.1, affine=True, track_running_stats=True) (conv3): Conv2d(256, 1024, kernel_size=(1, 1), stride=(1, 1), bias=False) (bn3): BatchNorm2d(1024, eps=1e-05, momentum=0.1, affine=True, track_running_stats=True) (relu): ReLU(inplace) ) (2): Bottleneck( (conv1): Conv2d(1024, 256, kernel_size=(1, 1), stride=(1, 1), bias=False) (bn1): BatchNorm2d(256, eps=1e-05, momentum=0.1, affine=True, track_running_stats=True) (conv2): Conv2d(256, 256, kernel_size=(3, 3), stride=(1, 1), padding=(1, 1), bias=False) (bn2): BatchNorm2d(256, eps=1e-05, momentum=0.1, affine=True, track_running_stats=True) (conv3): Conv2d(256, 1024, kernel_size=(1, 1), stride=(1, 1), bias=False) (bn3): BatchNorm2d(1024, eps=1e-05, momentum=0.1, affine=True, track_running_stats=True) (relu): ReLU(inplace) ) (3): Bottleneck( (conv1): Conv2d(1024, 256, kernel_size=(1, 1), stride=(1, 1), bias=False) (bn1): BatchNorm2d(256, eps=1e-05, momentum=0.1, affine=True, track_running_stats=True) (conv2): Conv2d(256, 256, kernel_size=(3, 3), stride=(1, 1), padding=(1, 1), bias=False) (bn2): BatchNorm2d(256, eps=1e-05, momentum=0.1, affine=True, track_running_stats=True) (conv3): Conv2d(256, 1024, kernel_size=(1, 1), stride=(1, 1), bias=False) (bn3): BatchNorm2d(1024, eps=1e-05, momentum=0.1, affine=True, track_running_stats=True) (relu): ReLU(inplace) ) (4): Bottleneck( (conv1): Conv2d(1024, 256, kernel_size=(1, 1), stride=(1, 1), bias=False) (bn1): BatchNorm2d(256, eps=1e-05, momentum=0.1, affine=True, track_running_stats=True) (conv2): Conv2d(256, 256, kernel_size=(3, 3), stride=(1, 1), padding=(1, 1), bias=False) (bn2): BatchNorm2d(256, eps=1e-05, momentum=0.1, affine=True, track_running_stats=True) (conv3): Conv2d(256, 1024, kernel_size=(1, 1), stride=(1, 1), bias=False) (bn3): BatchNorm2d(1024, eps=1e-05, momentum=0.1, affine=True, track_running_stats=True) (relu): ReLU(inplace) ) (5): Bottleneck( (conv1): Conv2d(1024, 256, kernel_size=(1, 1), stride=(1, 1), bias=False) (bn1): BatchNorm2d(256, eps=1e-05, momentum=0.1, affine=True, track_running_stats=True) (conv2): Conv2d(256, 256, kernel_size=(3, 3), stride=(1, 1), padding=(1, 1), bias=False) (bn2): BatchNorm2d(256, eps=1e-05, momentum=0.1, affine=True, track_running_stats=True) (conv3): Conv2d(256, 1024, kernel_size=(1, 1), stride=(1, 1), bias=False) (bn3): BatchNorm2d(1024, eps=1e-05, momentum=0.1, affine=True, track_running_stats=True) (relu): ReLU(inplace) ) ) (layer4): Sequential( (0): Bottleneck( (conv1): Conv2d(1024, 512, kernel_size=(1, 1), stride=(1, 1), bias=False) (bn1): BatchNorm2d(512, eps=1e-05, momentum=0.1, affine=True, track_running_stats=True) (conv2): Conv2d(512, 512, kernel_size=(3, 3), stride=(2, 2), padding=(1, 1), bias=False) (bn2): BatchNorm2d(512, eps=1e-05, momentum=0.1, affine=True, track_running_stats=True) (conv3): Conv2d(512, 2048, kernel_size=(1, 1), stride=(1, 1), bias=False) (bn3): BatchNorm2d(2048, eps=1e-05, momentum=0.1, affine=True, track_running_stats=True) (relu): ReLU(inplace) (downsample): Sequential( (0): Conv2d(1024, 2048, kernel_size=(1, 1), stride=(2, 2), bias=False) (1): BatchNorm2d(2048, eps=1e-05, momentum=0.1, affine=True, track_running_stats=True) ) ) (1): Bottleneck( (conv1): Conv2d(2048, 512, kernel_size=(1, 1), stride=(1, 1), bias=False) (bn1): BatchNorm2d(512, eps=1e-05, momentum=0.1, affine=True, track_running_stats=True) (conv2): Conv2d(512, 512, kernel_size=(3, 3), stride=(1, 1), padding=(1, 1), bias=False) (bn2): BatchNorm2d(512, eps=1e-05, momentum=0.1, affine=True, track_running_stats=True) (conv3): Conv2d(512, 2048, kernel_size=(1, 1), stride=(1, 1), bias=False) (bn3): BatchNorm2d(2048, eps=1e-05, momentum=0.1, affine=True, track_running_stats=True) (relu): ReLU(inplace) ) (2): Bottleneck( (conv1): Conv2d(2048, 512, kernel_size=(1, 1), stride=(1, 1), bias=False) (bn1): BatchNorm2d(512, eps=1e-05, momentum=0.1, affine=True, track_running_stats=True) (conv2): Conv2d(512, 512, kernel_size=(3, 3), stride=(1, 1), padding=(1, 1), bias=False) (bn2): BatchNorm2d(512, eps=1e-05, momentum=0.1, affine=True, track_running_stats=True) (conv3): Conv2d(512, 2048, kernel_size=(1, 1), stride=(1, 1), bias=False) (bn3): BatchNorm2d(2048, eps=1e-05, momentum=0.1, affine=True, track_running_stats=True) (relu): ReLU(inplace) ) ) (avgpool): AvgPool2d(kernel_size=7, stride=1, padding=0) (fc): Linear(in_features=2048, out_features=120, bias=True) ) \u8bbe\u7f6e\u8bad\u7ec3\u53c2\u6570\uff1a criterion = nn . CrossEntropyLoss () optimizer = torch . optim . Adam ([ { 'params' : model_ft . fc . parameters ()} ], lr = 0.001 ) #\u6307\u5b9a \u65b0\u52a0\u7684fc\u5c42\u7684\u5b66\u4e60\u7387 \u5b9a\u4e49\u8bad\u7ec3\u51fd\u6570\uff1a def train ( model , device , train_loader , epoch ): model . train 
…
u7684\u65b9\u6cd5\u6765\u652f\u6301\u4f46\u4e3b\u673a\u591aGPU\uff0c\u90a3\u5c31 torch.nn.DataParalle \u6211\u4eec\u53ea\u8981\u5c06\u6211\u4eec\u81ea\u5df1\u7684\u6a21\u578b\u4f5c\u4e3a\u53c2\u6570\uff0c\u76f4\u63a5\u4f20\u5165\u5373\u53ef\uff0c\u5269\u4e0b\u7684\u4e8b\u60c5PyTorch\u90fd\u4e3a\u6211\u4eec\u505a\u4e86\u3002 #\u4f7f\u7528\u5185\u7f6e\u7684\u4e00\u4e2a\u6a21\u578b\uff0c\u6211\u4eec\u8fd9\u91cc\u4ee5resnet50\u4e3a\u4f8b model = torchvision . models . resnet50 () #\u6a21\u578b\u4f7f\u7528\u591aGPU mdp = torch . nn . DataParallel ( model ) mdp DataParallel( (module): ResNet( (conv1): Conv2d(3, 64, kernel_size=(7, 7), stride=(2, 2), padding=(3, 3), bias=False) (bn1): BatchNorm2d(64, eps=1e-05, momentum=0.1, affine=True, track_running_stats=True) (relu): ReLU(inplace) (maxpool): MaxPool2d(kernel_size=3, stride=2, padding=1, dilation=1, ceil_mode=False) (layer1): Sequential( (0): Bottleneck( (conv1): Conv2d(64, 64, kernel_size=(1, 1), stride=(1, 1), bias=False) (bn1): BatchNorm2d(64, eps=1e-05, momentum=0.1, affine=True, track_running_stats=True) (conv2): Conv2d(64, 64, kernel_size=(3, 3), stride=(1, 1), padding=(1, 1), bias=False) (bn2): BatchNorm2d(64, eps=1e-05, momentum=0.1, affine=True, track_running_stats=True) (conv3): Conv2d(64, 256, kernel_size=(1, 1), stride=(1, 1), bias=False) (bn3): BatchNorm2d(256, eps=1e-05, momentum=0.1, affine=True, track_running_stats=True) (relu): ReLU(inplace) (downsample): Sequential( (0): Conv2d(64, 256, kernel_size=(1, 1), stride=(1, 1), bias=False) (1): BatchNorm2d(256, eps=1e-05, momentum=0.1, affine=True, track_running_stats=True) ) ) (1): Bottleneck( (conv1): Conv2d(256, 64, kernel_size=(1, 1), stride=(1, 1), bias=False) (bn1): BatchNorm2d(64, eps=1e-05, momentum=0.1, affine=True, track_running_stats=True) (conv2): Conv2d(64, 64, kernel_size=(3, 3), stride=(1, 1), padding=(1, 1), bias=False) (bn2): BatchNorm2d(64, eps=1e-05, momentum=0.1, affine=True, track_running_stats=True) (conv3): Conv2d(64, 256, kernel_size=(1, 1), stride=(1, 1), bias=False) (bn3): BatchNorm2d(256, eps=1e-05, momentum=0.1, affine=True, track_running_stats=True) (relu): ReLU(inplace) ) (2): Bottleneck( (conv1): Conv2d(256, 64, kernel_size=(1, 1), stride=(1, 1), bias=False) (bn1): BatchNorm2d(64, eps=1e-05, momentum=0.1, affine=True, track_running_stats=True) (conv2): Conv2d(64, 64, kernel_size=(3, 3), stride=(1, 1), padding=(1, 1), bias=False) (bn2): BatchNorm2d(64, eps=1e-05, momentum=0.1, affine=True, track_running_stats=True) (conv3): Conv2d(64, 256, kernel_size=(1, 1), stride=(1, 1), bias=False) (bn3): BatchNorm2d(256, eps=1e-05, momentum=0.1, affine=True, track_running_stats=True) (relu): ReLU(inplace) ) ) (layer2): Sequential( (0): Bottleneck( (conv1): Conv2d(256, 128, kernel_size=(1, 1), stride=(1, 1), bias=False) (bn1): BatchNorm2d(128, eps=1e-05, momentum=0.1, affine=True, track_running_stats=True) (conv2): Conv2d(128, 128, kernel_size=(3, 3), stride=(2, 2), padding=(1, 1), bias=False) (bn2): BatchNorm2d(128, eps=1e-05, momentum=0.1, affine=True, track_running_stats=True) (conv3): Conv2d(128, 512, kernel_size=(1, 1), stride=(1, 1), bias=False) (bn3): BatchNorm2d(512, eps=1e-05, momentum=0.1, affine=True, track_running_stats=True) (relu): ReLU(inplace) (downsample): Sequential( (0): Conv2d(256, 512, kernel_size=(1, 1), stride=(2, 2), bias=False) (1): BatchNorm2d(512, eps=1e-05, momentum=0.1, affine=True, track_running_stats=True) ) ) (1): Bottleneck( (conv1): Conv2d(512, 128, kernel_size=(1, 1), stride=(1, 1), bias=False) (bn1): BatchNorm2d(128, eps=1e-05, momentum=0.1, affine=True, track_running_stats=True) (conv2): Conv2d(128, 128, kernel_size=(3, 3), stride=(1, 1), padding=(1, 1), bias=False) (bn2): BatchNorm2d(128, eps=1e-05, momentum=0.1, affine=True, track_running_stats=True) (conv3): Conv2d(128, 512, kernel_size=(1, 1), stride=(1, 1), bias=False) (bn3): BatchNorm2d(512, eps=1e-05, momentum=0.1, affine=True, track_running_stats=True) (relu): ReLU(inplace) ) (2): Bottleneck( (conv1): Conv2d(512, 128, kernel_size=(1, 1), stride=(1, 1), bias=False) (bn1): BatchNorm2d(128, eps=1e-05, momentum=0.1, affine=True, track_running_stats=True) (conv2): Conv2d(128, 128, kernel_size=(3, 3), stride=(1, 1), padding=(1, 1), bias=False) (bn2): BatchNorm2d(128, eps=1e-05, momentum=0.1, affine=True, track_running_stats=True) (conv3): Conv2d(128, 512, kernel_size=(1, 1), stride=(1, 1), bias=False) (bn3): BatchNorm2d(512, eps=1e-05, momentum=0.1, affine=True, track_running_stats=True) (relu): ReLU(inplace) ) (3): Bottleneck( (conv1): Conv2d(512, 128, kernel_size=(1, 1), stride=(1, 1), bias=False) (bn1): BatchNorm2d(128, eps=1e-05, momentum=0.1, affine=True, track_running_stats=True) (conv2): Conv2d(128, 128, kernel_size=(3, 3), stride=(1, 1), padding=(1, 1), bias=False) (bn2): BatchNorm2d(128, eps=1e-05, momentum=0.1, affine=True, track_running_stats=True) (conv3): Conv2d(128, 512, kernel_size=(1, 1), stride=(1, 1), bias=False) (bn3): BatchNorm2d(512, eps=1e-05, momentum=0.1, affine=True, track_running_stats=True) (relu): ReLU(inplace) ) ) (layer3): Sequential( (0): Bottleneck( (conv1): Conv2d(512, 256, kernel_size=(1, 1), stride=(1, 1), bias=False) (bn1): BatchNorm2d(256, eps=1e-05, momentum=0.1, affine=True, track_running_stats=True) (conv2): Conv2d(256, 256, kernel_size=(3, 3), stride=(2, 2), padding=(1, 1), bias=False) (bn2): BatchNorm2d(256, eps=1e-05, momentum=0.1, affine=True, track_running_stats=True) (conv3): Conv2d(256, 1024, kernel_size=(1, 1), stride=(1, 1), bias=False) (bn3): BatchNorm2d(1024, eps=1e-05, momentum=0.1, affine=True, track_running_stats=True) (relu): ReLU(inplace) (downsample): Sequential( (0): Conv2d(512, 1024, kernel_size=(1, 1), stride=(2, 2), bias=False) (1): BatchNorm2d(1024, eps=1e-05, momentum=0.1, affine=True, track_running_stats=True) ) ) (1): Bottleneck( (conv1): Conv2d(1024, 256, kernel_size=(1, 1), stride=(1, 1), bias=False) (bn1): BatchNorm2d(256, eps=1e-05, momentum=0.1, affine=True, track_running_stats=True) (conv2): Conv2d(256, 256, kernel_size=(3, 3), stride=(1, 1), padding=(1, 1), bias=False) (bn2): BatchNorm2d(256, eps=1e-05, momentum=0.1, affine=True, track_running_stats=True) (conv3): Conv2d(256, 1024, kernel_size=(1, 1), stride=(1, 1), bias=False) (bn3): BatchNorm2d(1024, eps=1e-05, momentum=0.1, affine=True, track_running_stats=True) (relu): ReLU(inplace) ) (2): Bottleneck( (conv1): Conv2d(1024, 256, kernel_size=(1, 1), stride=(1, 1), bias=False) (bn1): BatchNorm2d(256, eps=1e-05, momentum=0.1, affine=True, track_running_stats=True) (conv2): Conv2d(256, 256, kernel_size=(3, 3), stride=(1, 1), padding=(1, 1), bias=False) (bn2): BatchNorm2d(256, eps=1e-05, momentum=0.1, affine=True, track_running_stats=True) (conv3): Conv2d(256, 1024, kernel_size=(1, 1), stride=(1, 1), bias=False) (bn3): BatchNorm2d(1024, eps=1e-05, momentum=0.1, affine=True, track_running_stats=True) (relu): ReLU(inplace) ) (3): Bottleneck( (conv1): Conv2d(1024, 256, kernel_size=(1, 1), stride=(1, 1), bias=False) (bn1): BatchNorm2d(256, eps=1e-05, momentum=0.1, affine=True, track_running_stats=True) (conv2): Conv2d(256, 256, kernel_size=(3, 3), stride=(1, 1), padding=(1, 1), bias=False) (bn2): BatchNorm2d(256, eps=1e-05, momentum=0.1, affine=True, track_running_stats=True) (conv3): Conv2d(256, 1024, kernel_size=(1, 1), stride=(1, 1), bias=False) (bn3): BatchNorm2d(1024, eps=1e-05, momentum=0.1, affine=True, track_running_stats=True) (relu): ReLU(inplace) ) (4): Bottleneck( (conv1): Conv2d(1024, 256, kernel_size=(1, 1), stride=(1, 1), bias=False) (bn1): BatchNorm2d(256, eps=1e-05, momentum=0.1, affine=True, track_running_stats=True) (conv2): Conv2d(256, 256, kernel_size=(3, 3), stride=(1, 1), padding=(1, 1), bias=False) (bn2): BatchNorm2d(256, eps=1e-05, momentum=0.1, affine=True, track_running_stats=True) (conv3): Conv2d(256, 1024, kernel_size=(1, 1), stride=(1, 1), bias=False) (bn3): BatchNorm2d(1024, eps=1e-05, momentum=0.1, affine=True, track_running_stats=True) (relu): ReLU(inplace) ) (5): Bottleneck( (conv1): Conv2d(1024, 256, kernel_size=(1, 1), stride=(1, 1), bias=False) (bn1): BatchNorm2d(256, eps=1e-05, momentum=0.1, affine=True, track_running_stats=True) (conv2): Conv2d(256, 256, kernel_size=(3, 3), stride=(1, 1), padding=(1, 1), bias=False) (bn2): BatchNorm2d(256, eps=1e-05, momentum=0.1, affine=True, track_running_stats=True) (conv3): Conv2d(256, 1024, kernel_size=(1, 1), stride=(1, 1), bias=False) (bn3): BatchNorm2d(1024, eps=1e-05, momentum=0.1, affine=True, track_running_stats=True) (relu): ReLU(inplace) ) ) (layer4): Sequential( (0): Bottleneck( (conv1): Conv2d(1024, 512, kernel_size=(1, 1), stride=(1, 1), bias=False) (bn1): BatchNorm2d(512, eps=1e-05, momentum=0.1, affine=True, track_running_stats=True) (conv2): Conv2d(512, 512, kernel_size=(3, 3), stride=(2, 2), padding=(1, 1), bias=False) (bn2): BatchNorm2d(512, eps=1e-05, momentum=0.1, affine=True, track_running_stats=True) (conv3): Conv2d(512, 2048, kernel_size=(1, 1), stride=(1, 1), bias=False) (bn3): BatchNorm2d(2048, eps=1e-05, momentum=0.1, affine=True, track_running_stats=True) (relu): ReLU(inplace) (downsample): Sequential( (0): Conv2d(1024, 2048, kernel_size=(1, 1), stride=(2, 2), bias=False) (1): BatchNorm2d(2048, eps=1e-05, momentum=0.1, affine=True, track_running_stats=True) ) ) (1): Bottleneck( (conv1): Conv2d(2048, 512, kernel_size=(1, 1), stride=(1, 1), bias=False) (bn1): BatchNorm2d(512, eps=1e-05, momentum=0.1, affine=True, track_running_stats=True) (conv2): Conv2d(512, 512, kernel_size=(3, 3), stride=(1, 1), padding=(1, 1), bias=False) (bn2): BatchNorm2d(512, eps=1e-05, momentum=0.1, affine=True, track_running_stats=True) (conv3): Conv2d(512, 2048, kernel_size=(1, 1), stride=(1, 1), bias=False) (bn3): BatchNorm2d(2048, eps=1e-05, momentum=0.1, affine=True, track_running_stats=True) (relu): ReLU(inplace) ) (2): Bottleneck( (conv1): Conv2d(2048, 512, kernel_size=(1, 1), stride=(1, 1), bias=False) (bn1): BatchNorm2d(512, eps=1e-05, momentum=0.1, affine=True, track_running_stats=True) (conv2): Conv2d(512, 512, kernel_size=(3, 3), stride=(1, 1), padding=(1, 1), bias=False) (bn2): BatchNorm2d(512, eps=1e-05, momentum=0.1, affine=True, track_running_stats=True) (conv3): Conv2d(512, 2048, kernel_size=(1, 1), stride=(1, 1), bias=False) (bn3): BatchNorm2d(2048, eps=1e-05, momentum=0.1, affine=True, track_running_stats=True) (relu): ReLU(inplace) ) ) (avgpool): AvgPool2d(kernel_size=7, stride=1, padding=0) (fc): Linear(in_features=2048, out_features=1000, bias=True) ) ) \u53ea\u8981\u8fd9\u6837\u4e00\u4e2a\u7b80\u5355\u7684\u5305\u88f9\uff0cPytorch\u5df2\u7ecf\u4e3a\u6211\u4eec\u505a\u4e86\u5f88\u591a\u590d\u6742\u7684\u5de5\u4f5c\u3002\u6211\u4eec\u53ea\u9700\u8981\u589e\u5927\u6211\u4eec\u8bad\u7ec3\u7684batch_size(\u4e00\u822c\u8ba1\u7b97\u4e3aN\u500d\uff0cN\u4e3a\u663e\u5361\u6570\u91cf)\uff0c\u5176\u4ed6\u4
…
6\u5230\u5269\u4f59\u6307\u5b9a\u7684 GPU \u4e2d\uff0c\u8fd9\u6837\u5c31\u5b8c\u6210\u4e86\u4e00\u6b21\u8fed\u4ee3\u8ba1\u7b97\u3002 DataParallel\u5176\u5b9e\u4e5f\u662f\u4e00\u4e2ann.Model\u6240\u4ee5\u6211\u4eec\u53ef\u4ee5\u4fdd\u5b58\u6743\u91cd\u7684\u65b9\u6cd5\u548c\u4e00\u822c\u7684nn.Model\u6ca1\u6709\u533a\u522b\uff0c\u53ea\u4e0d\u8fc7\u5982\u679c\u4f60\u60f3\u4f7f\u7528\u5355\u5361\u6216\u8005cpu\u4f5c\u4e3a\u63a8\u7406\u7684\u65f6\u5019\u9700\u8981\u4ece\u91cc\u9762\u8bfb\u51fa\u539f\u59cb\u7684model\u3002 #\u83b7\u53d6\u5230\u539f\u59cb\u7684model m = mdp . module m ResNet( (conv1): Conv2d(3, 64, kernel_size=(7, 7), stride=(2, 2), padding=(3, 3), bias=False) (bn1): BatchNorm2d(64, eps=1e-05, momentum=0.1, affine=True, track_running_stats=True) (relu): ReLU(inplace) (maxpool): MaxPool2d(kernel_size=3, stride=2, padding=1, dilation=1, ceil_mode=False) (layer1): Sequential( (0): Bottleneck( (conv1): Conv2d(64, 64, kernel_size=(1, 1), stride=(1, 1), bias=False) (bn1): BatchNorm2d(64, eps=1e-05, momentum=0.1, affine=True, track_running_stats=True) (conv2): Conv2d(64, 64, kernel_size=(3, 3), stride=(1, 1), padding=(1, 1), bias=False) (bn2): BatchNorm2d(64, eps=1e-05, momentum=0.1, affine=True, track_running_stats=True) (conv3): Conv2d(64, 256, kernel_size=(1, 1), stride=(1, 1), bias=False) (bn3): BatchNorm2d(256, eps=1e-05, momentum=0.1, affine=True, track_running_stats=True) (relu): ReLU(inplace) (downsample): Sequential( (0): Conv2d(64, 256, kernel_size=(1, 1), stride=(1, 1), bias=False) (1): BatchNorm2d(256, eps=1e-05, momentum=0.1, affine=True, track_running_stats=True) ) ) (1): Bottleneck( (conv1): Conv2d(256, 64, kernel_size=(1, 1), stride=(1, 1), bias=False) (bn1): BatchNorm2d(64, eps=1e-05, momentum=0.1, affine=True, track_running_stats=True) (conv2): Conv2d(64, 64, kernel_size=(3, 3), stride=(1, 1), padding=(1, 1), bias=False) (bn2): BatchNorm2d(64, eps=1e-05, momentum=0.1, affine=True, track_running_stats=True) (conv3): Conv2d(64, 256, kernel_size=(1, 1), stride=(1, 1), bias=False) (bn3): BatchNorm2d(256, eps=1e-05, momentum=0.1, affine=True, track_running_stats=True) (relu): ReLU(inplace) ) (2): Bottleneck( (conv1): Conv2d(256, 64, kernel_size=(1, 1), stride=(1, 1), bias=False) (bn1): BatchNorm2d(64, eps=1e-05, momentum=0.1, affine=True, track_running_stats=True) (conv2): Conv2d(64, 64, kernel_size=(3, 3), stride=(1, 1), padding=(1, 1), bias=False) (bn2): BatchNorm2d(64, eps=1e-05, momentum=0.1, affine=True, track_running_stats=True) (conv3): Conv2d(64, 256, kernel_size=(1, 1), stride=(1, 1), bias=False) (bn3): BatchNorm2d(256, eps=1e-05, momentum=0.1, affine=True, track_running_stats=True) (relu): ReLU(inplace) ) ) (layer2): Sequential( (0): Bottleneck( (conv1): Conv2d(256, 128, kernel_size=(1, 1), stride=(1, 1), bias=False) (bn1): BatchNorm2d(128, eps=1e-05, momentum=0.1, affine=True, track_running_stats=True) (conv2): Conv2d(128, 128, kernel_size=(3, 3), stride=(2, 2), padding=(1, 1), bias=False) (bn2): BatchNorm2d(128, eps=1e-05, momentum=0.1, affine=True, track_running_stats=True) (conv3): Conv2d(128, 512, kernel_size=(1, 1), stride=(1, 1), bias=False) (bn3): BatchNorm2d(512, eps=1e-05, momentum=0.1, affine=True, track_running_stats=True) (relu): ReLU(inplace) (downsample): Sequential( (0): Conv2d(256, 512, kernel_size=(1, 1), stride=(2, 2), bias=False) (1): BatchNorm2d(512, eps=1e-05, momentum=0.1, affine=True, track_running_stats=True) ) ) (1): Bottleneck( (conv1): Conv2d(512, 128, kernel_size=(1, 1), stride=(1, 1), bias=False) (bn1): BatchNorm2d(128, eps=1e-05, momentum=0.1, affine=True, track_running_stats=True) (conv2): Conv2d(128, 128, kernel_size=(3, 3), stride=(1, 1), padding=(1, 1), bias=False) (bn2): BatchNorm2d(128, eps=1e-05, momentum=0.1, affine=True, track_running_stats=True) (conv3): Conv2d(128, 512, kernel_size=(1, 1), stride=(1, 1), bias=False) (bn3): BatchNorm2d(512, eps=1e-05, momentum=0.1, affine=True, track_running_stats=True) (relu): ReLU(inplace) ) (2): Bottleneck( (conv1): Conv2d(512, 128, kernel_size=(1, 1), stride=(1, 1), bias=False) (bn1): BatchNorm2d(128, eps=1e-05, momentum=0.1, affine=True, track_running_stats=True) (conv2): Conv2d(128, 128, kernel_size=(3, 3), stride=(1, 1), padding=(1, 1), bias=False) (bn2): BatchNorm2d(128, eps=1e-05, momentum=0.1, affine=True, track_running_stats=True) (conv3): Conv2d(128, 512, kernel_size=(1, 1), stride=(1, 1), bias=False) (bn3): BatchNorm2d(512, eps=1e-05, momentum=0.1, affine=True, track_running_stats=True) (relu): ReLU(inplace) ) (3): Bottleneck( (conv1): Conv2d(512, 128, kernel_size=(1, 1), stride=(1, 1), bias=False) (bn1): BatchNorm2d(128, eps=1e-05, momentum=0.1, affine=True, track_running_stats=True) (conv2): Conv2d(128, 128, kernel_size=(3, 3), stride=(1, 1), padding=(1, 1), bias=False) (bn2): BatchNorm2d(128, eps=1e-05, momentum=0.1, affine=True, track_running_stats=True) (conv3): Conv2d(128, 512, kernel_size=(1, 1), stride=(1, 1), bias=False) (bn3): BatchNorm2d(512, eps=1e-05, momentum=0.1, affine=True, track_running_stats=True) (relu): ReLU(inplace) ) ) (layer3): Sequential( (0): Bottleneck( (conv1): Conv2d(512, 256, kernel_size=(1, 1), stride=(1, 1), bias=False) (bn1): BatchNorm2d(256, eps=1e-05, momentum=0.1, affine=True, track_running_stats=True) (conv2): Conv2d(256, 256, kernel_size=(3, 3), stride=(2, 2), padding=(1, 1), bias=False) (bn2): BatchNorm2d(256, eps=1e-05, momentum=0.1, affine=True, track_running_stats=True) (conv3): Conv2d(256, 1024, kernel_size=(1, 1), stride=(1, 1), bias=False) (bn3): BatchNorm2d(1024, eps=1e-05, momentum=0.1, affine=True, track_running_stats=True) (relu): ReLU(inplace) (downsample): Sequential( (0): Conv2d(512, 1024, kernel_size=(1, 1), stride=(2, 2), bias=False) (1): BatchNorm2d(1024, eps=1e-05, momentum=0.1, affine=True, track_running_stats=True) ) ) (1): Bottleneck( (conv1): Conv2d(1024, 256, kernel_size=(1, 1), stride=(1, 1), bias=False) (bn1): BatchNorm2d(256, eps=1e-05, momentum=0.1, affine=True, track_running_stats=True) (conv2): Conv2d(256, 256, kernel_size=(3, 3), stride=(1, 1), padding=(1, 1), bias=False) (bn2): BatchNorm2d(256, eps=1e-05, momentum=0.1, affine=True, track_running_stats=True) (conv3): Conv2d(256, 1024, kernel_size=(1, 1), stride=(1, 1), bias=False) (bn3): BatchNorm2d(1024, eps=1e-05, momentum=0.1, affine=True, track_running_stats=True) (relu): ReLU(inplace) ) (2): Bottleneck( (conv1): Conv2d(1024, 256, kernel_size=(1, 1), stride=(1, 1), bias=False) (bn1): BatchNorm2d(256, eps=1e-05, momentum=0.1, affine=True, track_running_stats=True) (conv2): Conv2d(256, 256, kernel_size=(3, 3), stride=(1, 1), padding=(1, 1), bias=False) (bn2): BatchNorm2d(256, eps=1e-05, momentum=0.1, affine=True, track_running_stats=True) (conv3): Conv2d(256, 1024, kernel_size=(1, 1), stride=(1, 1), bias=False) (bn3): BatchNorm2d(1024, eps=1e-05, momentum=0.1, affine=True, track_running_stats=True) (relu): ReLU(inplace) ) (3): Bottleneck( (conv1): Conv2d(1024, 256, kernel_size=(1, 1), stride=(1, 1), bias=False) (bn1): BatchNorm2d(256, eps=1e-05, momentum=0.1, affine=True, track_running_stats=True) (conv2): Conv2d(256, 256, kernel_size=(3, 3), stride=(1, 1), padding=(1, 1), bias=False) (bn2): BatchNorm2d(256, eps=1e-05, momentum=0.1, affine=True, track_running_stats=True) (conv3): Conv2d(256, 1024, kernel_size=(1, 1), stride=(1, 1), bias=False) (bn3): BatchNorm2d(1024, eps=1e-05, momentum=0.1, affine=True, track_running_stats=True) (relu): ReLU(inplace) ) (4): Bottleneck( (conv1): Conv2d(1024, 256, kernel_size=(1, 1), stride=(1, 1), bias=False) (bn1): BatchNorm2d(256, eps=1e-05, momentum=0.1, affine=True, track_running_stats=True) (conv2): Conv2d(256, 256, kernel_size=(3, 3), stride=(1, 1), padding=(1, 1), bias=False) (bn2): BatchNorm2d(256, eps=1e-05, momentum=0.1, affine=True, track_running_stats=True) (conv3): Conv2d(256, 1024, kernel_size=(1, 1), stride=(1, 1), bias=False) (bn3): BatchNorm2d(1024, eps=1e-05, momentum=0.1, affine=True, track_running_stats=True) (relu): ReLU(inplace) ) (5): Bottleneck( (conv1): Conv2d(1024, 256, kernel_size=(1, 1), stride=(1, 1), bias=False) (bn1): BatchNorm2d(256, eps=1e-05, momentum=0.1, affine=True, track_running_stats=True) (conv2): Conv2d(256, 256, kernel_size=(3, 3), stride=(1, 1), padding=(1, 1), bias=False) (bn2): BatchNorm2d(256, eps=1e-05, momentum=0.1, affine=True, track_running_stats=True) (conv3): Conv2d(256, 1024, kernel_size=(1, 1), stride=(1, 1), bias=False) (bn3): BatchNorm2d(1024, eps=1e-05, momentum=0.1, affine=True, track_running_stats=True) (relu): ReLU(inplace) ) ) (layer4): Sequential( (0): Bottleneck( (conv1): Conv2d(1024, 512, kernel_size=(1, 1), stride=(1, 1), bias=False) (bn1): BatchNorm2d(512, eps=1e-05, momentum=0.1, affine=True, track_running_stats=True) (conv2): Conv2d(512, 512, kernel_size=(3, 3), stride=(2, 2), padding=(1, 1), bias=False) (bn2): BatchNorm2d(512, eps=1e-05, momentum=0.1, affine=True, track_running_stats=True) (conv3): Conv2d(512, 2048, kernel_size=(1, 1), stride=(1, 1), bias=False) (bn3): BatchNorm2d(2048, eps=1e-05, momentum=0.1, affine=True, track_running_stats=True) (relu): ReLU(inplace) (downsample): Sequential( (0): Conv2d(1024, 2048, kernel_size=(1, 1), stride=(2, 2), bias=False) (1): BatchNorm2d(2048, eps=1e-05, momentum=0.1, affine=True, track_running_stats=True) ) ) (1): Bottleneck( (conv1): Conv2d(2048, 512, kernel_size=(1, 1), stride=(1, 1), bias=False) (bn1): BatchNorm2d(512, eps=1e-05, momentum=0.1, affine=True, track_running_stats=True) (conv2): Conv2d(512, 512, kernel_size=(3, 3), stride=(1, 1), padding=(1, 1), bias=False) (bn2): BatchNorm2d(512, eps=1e-05, momentum=0.1, affine=True, track_running_stats=True) (conv3): Conv2d(512, 2048, kernel_size=(1, 1), stride=(1, 1), bias=False) (bn3): BatchNorm2d(2048, eps=1e-05, momentum=0.1, affine=True, track_running_stats=True) (relu): ReLU(inplace) ) (2): Bottleneck( (conv1): Conv2d(2048, 512, kernel_size=(1, 1), stride=(1, 1), bias=False) (bn1): BatchNorm2d(512, eps=1e-05, momentum=0.1, affine=True, track_running_stats=True) (conv2): Conv2d(512, 512, kernel_size=(3, 3), stride=(1, 1), padding=(1, 1), bias=False) (bn2): BatchNorm2d(512, eps=1e-05, momentum=0.1, affine=True, track_running_stats=True) (conv3): Conv2d(512, 2048, kernel_size=(1, 1), stride=(1, 1), bias=False) (bn3): BatchNorm2d(2048, eps=1e-05, momentum=0.1, affine=True, track_running_stats=True) (relu): ReLU(inplace) ) ) (avgpool): AvgPool2d(kernel_size=7, stride=1, padding=0) (fc): Linear(in_features=2048, out_features=1000, bias=True) ) DataParallel\u4f1a\u5c06\u5b9a\u4e49\u7684\u7f51\u7edc\u6a21\u578b\u53c2\u6570\u9ed8\u8ba4\u653e\u5728GPU 0\u4e0a\uff0c\u6240\u4ee5dataparallel\u5b9e\u8d28\u662f\u53ef\u4ee5\u770b\u505a\u628a\u8bad\u7ec3\u53c2\u6570\u4eceGPU\u62f7\u8d1d\u5230\u5176\u4ed6\u7684GPU\u540c\u65f6\u8bad\u7ec3\uff0c\u8fd9\u6837\u4f1a\u5bfc\u81f4\u5185\u5b58\u548cGPU\u4f7f
…
